{"format": "graph-model", "generatedBy": "2.19.0", "convertedBy": "TensorFlow.js Converter v4.22.0", "signature": {"outputs": {"Identity:0": {"name": "Identity:0"}}}, "modelTopology": {"node": [{"name": "model_52/tf.strided_slice_8/StridedSlice/begin", "op": "Const", "attr": {"value": {"tensor": {"dtype": "DT_INT32", "tensorShape": {"dim": [{"size": "4"}]}}}, "dtype": {"type": "DT_INT32"}}}, {"name": "model_52/tf.strided_slice_8/StridedSlice/end", "op": "Const", "attr": {"value": {"tensor": {"dtype": "DT_INT32", "tensorShape": {"dim": [{"size": "4"}]}}}, "dtype": {"type": "DT_INT32"}}}, {"name": "model_52/tf.strided_slice_8/ones_like", "op": "Const", "attr": {"value": {"tensor": {"dtype": "DT_INT32", "tensorShape": {"dim": [{"size": "4"}]}}}, "dtype": {"type": "DT_INT32"}}}, {"name": "model_52/tf.math.add_52/Add/y", "op": "Const", "attr": {"value": {"tensor": {"dtype": "DT_FLOAT", "tensorShape": {"dim": [{"size": "128"}]}}}, "dtype": {"type": "DT_FLOAT"}}}, {"name": "model_52/tf.math.add_45/Add/y", "op": "Const", "attr": {"value": {"tensor": {"dtype": "DT_FLOAT", "tensorShape": {"dim": [{"size": "128"}]}}}, "dtype": {"type": "DT_FLOAT"}}}, {"name": "model_52/tf.strided_slice_10/StridedSlice/begin", "op": "Const", "attr": {"value": {"tensor": {"dtype": "DT_INT32", "tensorShape": {"dim": [{"size": "4"}]}}}, "dtype": {"type": "DT_INT32"}}}, {"name": "model_52/tf.strided_slice_10/StridedSlice/end", "op": "Const", "attr": {"value": {"tensor": {"dtype": "DT_INT32", "tensorShape": {"dim": [{"size": "4"}]}}}, "dtype": {"type": "DT_INT32"}}}, {"name": "model_52/tf.strided_slice_10/ones_like", "op": "Const", "attr": {"value": {"tensor": {"dtype": "DT_INT32", "tensorShape": {"dim": [{"size": "4"}]}}}, "dtype": {"type": "DT_INT32"}}}, {"name": "model_52/tf.strided_slice_11/StridedSlice/begin", "op": "Const", "attr": {"value": {"tensor": {"dtype": "DT_INT32", "tensorShape": {"dim": [{"size": "4"}]}}}, "dtype": {"type": "DT_INT32"}}}, {"name": "model_52/tf.strided_slice_11/StridedSlice/end", "op": "Const", "attr": {"value": {"tensor": {"dtype": "DT_INT32", "tensorShape": {"dim": [{"size": "4"}]}}}, "dtype": {"type": "DT_INT32"}}}, {"name": "model_52/tf.strided_slice_11/ones_like", "op": "Const", "attr": {"value": {"tensor": {"dtype": "DT_INT32", "tensorShape": {"dim": [{"size": "4"}]}}}, "dtype": {"type": "DT_INT32"}}}, {"name": "model_52/tf.math.multiply_142/Mul/y", "op": "Const", "attr": {"value": {"tensor": {"dtype": "DT_FLOAT", "tensorShape": {}}}, "dtype": {"type": "DT_FLOAT"}}}, {"name": "model_52/tf.reshape_31/Reshape/shape", "op": "Const", "attr": {"value": {"tensor": {"dtype": "DT_INT32", "tensorShape": {"dim": [{"size": "4"}]}}}, "dtype": {"type": "DT_INT32"}}}, {"name": "model_52/tf.compat.v1.transpose_104/transpose/perm", "op": "Const", "attr": {"value": {"tensor": {"dtype": "DT_INT32", "tensorShape": {"dim": [{"size": "4"}]}}}, "dtype": {"type": "DT_INT32"}}}, {"name": "model_52/tf.nn.convolution_33/convolution/filter", "op": "Const", "attr": {"value": {"tensor": {"dtype": "DT_FLOAT", "tensorShape": {"dim": [{"size": "3"}, {"size": "3"}, {"size": "1"}, {"size": "1"}]}}}, "dtype": {"type": "DT_FLOAT"}}}, {"name": "model_52/tf.nn.convolution_34/convolution/filter", "op": "Const", "attr": {"value": {"tensor": {"dtype": "DT_FLOAT", "tensorShape": {"dim": [{"size": "3"}, {"size": "3"}, {"size": "1"}, {"size": "1"}]}}}, "dtype": {"type": "DT_FLOAT"}}}, {"name": "model_52/tf.nn.convolution_35/convolution/filter", "op": "Const", "attr": {"value": {"tensor": {"dtype": "DT_FLOAT", "tensorShape": {"dim": [{"size": "3"}, {"size": "3"}, {"size": "1"}, {"size": "1"}]}}}, "dtype": {"type": "DT_FLOAT"}}}, {"name": "model_52/tf.nn.convolution_36/convolution/filter", "op": "Const", "attr": {"value": {"tensor": {"dtype": "DT_FLOAT", "tensorShape": {"dim": [{"size": "3"}, {"size": "3"}, {"size": "1"}, {"size": "1"}]}}}, "dtype": {"type": "DT_FLOAT"}}}, {"name": "model_52/tf.nn.convolution_37/convolution/filter", "op": "Const", "attr": {"value": {"tensor": {"dtype": "DT_FLOAT", "tensorShape": {"dim": [{"size": "3"}, {"size": "3"}, {"size": "1"}, {"size": "1"}]}}}, "dtype": {"type": "DT_FLOAT"}}}, {"name": "model_52/tf.nn.convolution_38/convolution/filter", "op": "Const", "attr": {"value": {"tensor": {"dtype": "DT_FLOAT", "tensorShape": {"dim": [{"size": "3"}, {"size": "3"}, {"size": "1"}, {"size": "1"}]}}}, "dtype": {"type": "DT_FLOAT"}}}, {"name": "model_52/tf.nn.convolution_39/convolution/filter", "op": "Const", "attr": {"value": {"tensor": {"dtype": "DT_FLOAT", "tensorShape": {"dim": [{"size": "3"}, {"size": "3"}, {"size": "1"}, {"size": "1"}]}}}, "dtype": {"type": "DT_FLOAT"}}}, {"name": "model_52/tf.nn.convolution_40/convolution/filter", "op": "Const", "attr": {"value": {"tensor": {"dtype": "DT_FLOAT", "tensorShape": {"dim": [{"size": "3"}, {"size": "3"}, {"size": "1"}, {"size": "1"}]}}}, "dtype": {"type": "DT_FLOAT"}}}, {"name": "model_52/tf.nn.convolution_41/convolution/filter", "op": "Const", "attr": {"value": {"tensor": {"dtype": "DT_FLOAT", "tensorShape": {"dim": [{"size": "3"}, {"size": "3"}, {"size": "1"}, {"size": "1"}]}}}, "dtype": {"type": "DT_FLOAT"}}}, {"name": "model_52/tf.nn.convolution_42/convolution/filter", "op": "Const", "attr": {"value": {"tensor": {"dtype": "DT_FLOAT", "tensorShape": {"dim": [{"size": "3"}, {"size": "3"}, {"size": "1"}, {"size": "1"}]}}}, "dtype": {"type": "DT_FLOAT"}}}, {"name": "model_52/tf.nn.convolution_43/convolution/filter", "op": "Const", "attr": {"value": {"tensor": {"dtype": "DT_FLOAT", "tensorShape": {"dim": [{"size": "3"}, {"size": "3"}, {"size": "1"}, {"size": "1"}]}}}, "dtype": {"type": "DT_FLOAT"}}}, {"name": "model_52/tf.nn.convolution_44/convolution/filter", "op": "Const", "attr": {"value": {"tensor": {"dtype": "DT_FLOAT", "tensorShape": {"dim": [{"size": "3"}, {"size": "3"}, {"size": "1"}, {"size": "1"}]}}}, "dtype": {"type": "DT_FLOAT"}}}, {"name": "model_52/tf.nn.convolution_45/convolution/filter", "op": "Const", "attr": {"value": {"tensor": {"dtype": "DT_FLOAT", "tensorShape": {"dim": [{"size": "3"}, {"size": "3"}, {"size": "1"}, {"size": "1"}]}}}, "dtype": {"type": "DT_FLOAT"}}}, {"name": "model_52/tf.nn.convolution_46/convolution/filter", "op": "Const", "attr": {"value": {"tensor": {"dtype": "DT_FLOAT", "tensorShape": {"dim": [{"size": "3"}, {"size": "3"}, {"size": "1"}, {"size": "1"}]}}}, "dtype": {"type": "DT_FLOAT"}}}, {"name": "model_52/tf.nn.convolution_47/convolution/filter", "op": "Const", "attr": {"value": {"tensor": {"dtype": "DT_FLOAT", "tensorShape": {"dim": [{"size": "3"}, {"size": "3"}, {"size": "1"}, {"size": "1"}]}}}, "dtype": {"type": "DT_FLOAT"}}}, {"name": "model_52/tf.nn.convolution_48/convolution/filter", "op": "Const", "attr": {"value": {"tensor": {"dtype": "DT_FLOAT", "tensorShape": {"dim": [{"size": "3"}, {"size": "3"}, {"size": "1"}, {"size": "1"}]}}}, "dtype": {"type": "DT_FLOAT"}}}, {"name": "model_52/tf.nn.convolution_49/convolution/filter", "op": "Const", "attr": {"value": {"tensor": {"dtype": "DT_FLOAT", "tensorShape": {"dim": [{"size": "3"}, {"size": "3"}, {"size": "1"}, {"size": "1"}]}}}, "dtype": {"type": "DT_FLOAT"}}}, {"name": "model_52/tf.nn.convolution_50/convolution/filter", "op": "Const", "attr": {"value": {"tensor": {"dtype": "DT_FLOAT", "tensorShape": {"dim": [{"size": "3"}, {"size": "3"}, {"size": "1"}, {"size": "1"}]}}}, "dtype": {"type": "DT_FLOAT"}}}, {"name": "model_52/tf.nn.convolution_51/convolution/filter", "op": "Const", "attr": {"value": {"tensor": {"dtype": "DT_FLOAT", "tensorShape": {"dim": [{"size": "3"}, {"size": "3"}, {"size": "1"}, {"size": "1"}]}}}, "dtype": {"type": "DT_FLOAT"}}}, {"name": "model_52/tf.nn.convolution_52/convolution/filter", "op": "Const", "attr": {"value": {"tensor": {"dtype": "DT_FLOAT", "tensorShape": {"dim": [{"size": "3"}, {"size": "3"}, {"size": "1"}, {"size": "1"}]}}}, "dtype": {"type": "DT_FLOAT"}}}, {"name": "model_52/tf.nn.convolution_53/convolution/filter", "op": "Const", "attr": {"value": {"tensor": {"dtype": "DT_FLOAT", "tensorShape": {"dim": [{"size": "3"}, {"size": "3"}, {"size": "1"}, {"size": "1"}]}}}, "dtype": {"type": "DT_FLOAT"}}}, {"name": "model_52/tf.nn.convolution_54/convolution/filter", "op": "Const", "attr": {"value": {"tensor": {"dtype": "DT_FLOAT", "tensorShape": {"dim": [{"size": "3"}, {"size": "3"}, {"size": "1"}, {"size": "1"}]}}}, "dtype": {"type": "DT_FLOAT"}}}, {"name": "model_52/tf.nn.convolution_55/convolution/filter", "op": "Const", "attr": {"value": {"tensor": {"dtype": "DT_FLOAT", "tensorShape": {"dim": [{"size": "3"}, {"size": "3"}, {"size": "1"}, {"size": "1"}]}}}, "dtype": {"type": "DT_FLOAT"}}}, {"name": "model_52/tf.nn.convolution_56/convolution/filter", "op": "Const", "attr": {"value": {"tensor": {"dtype": "DT_FLOAT", "tensorShape": {"dim": [{"size": "3"}, {"size": "3"}, {"size": "1"}, {"size": "1"}]}}}, "dtype": {"type": "DT_FLOAT"}}}, {"name": "model_52/tf.nn.convolution_57/convolution/filter", "op": "Const", "attr": {"value": {"tensor": {"dtype": "DT_FLOAT", "tensorShape": {"dim": [{"size": "3"}, {"size": "3"}, {"size": "1"}, {"size": "1"}]}}}, "dtype": {"type": "DT_FLOAT"}}}, {"name": "model_52/tf.nn.convolution_58/convolution/filter", "op": "Const", "attr": {"value": {"tensor": {"dtype": "DT_FLOAT", "tensorShape": {"dim": [{"size": "3"}, {"size": "3"}, {"size": "1"}, {"size": "1"}]}}}, "dtype": {"type": "DT_FLOAT"}}}, {"name": "model_52/tf.nn.convolution_59/convolution/filter", "op": "Const", "attr": {"value": {"tensor": {"dtype": "DT_FLOAT", "tensorShape": {"dim": [{"size": "3"}, {"size": "3"}, {"size": "1"}, {"size": "1"}]}}}, "dtype": {"type": "DT_FLOAT"}}}, {"name": "model_52/tf.nn.convolution_60/convolution/filter", "op": "Const", "attr": {"value": {"tensor": {"dtype": "DT_FLOAT", "tensorShape": {"dim": [{"size": "3"}, {"size": "3"}, {"size": "1"}, {"size": "1"}]}}}, "dtype": {"type": "DT_FLOAT"}}}, {"name": "model_52/tf.nn.convolution_61/convolution/filter", "op": "Const", "attr": {"value": {"tensor": {"dtype": "DT_FLOAT", "tensorShape": {"dim": [{"size": "3"}, {"size": "3"}, {"size": "1"}, {"size": "1"}]}}}, "dtype": {"type": "DT_FLOAT"}}}, {"name": "model_52/tf.nn.convolution_62/convolution/filter", "op": "Const", "attr": {"value": {"tensor": {"dtype": "DT_FLOAT", "tensorShape": {"dim": [{"size": "3"}, {"size": "3"}, {"size": "1"}, {"size": "1"}]}}}, "dtype": {"type": "DT_FLOAT"}}}, {"name": "model_52/tf.nn.convolution_63/convolution/filter", "op": "Const", "attr": {"value": {"tensor": {"dtype": "DT_FLOAT", "tensorShape": {"dim": [{"size": "3"}, {"size": "3"}, {"size": "1"}, {"size": "1"}]}}}, "dtype": {"type": "DT_FLOAT"}}}, {"name": "model_52/tf.nn.convolution_64/convolution/filter", "op": "Const", "attr": {"value": {"tensor": {"dtype": "DT_FLOAT", "tensorShape": {"dim": [{"size": "3"}, {"size": "3"}, {"size": "1"}, {"size": "1"}]}}}, "dtype": {"type": "DT_FLOAT"}}}, {"name": "model_52/tf.nn.convolution_65/convolution/filter", "op": "Const", "attr": {"value": {"tensor": {"dtype": "DT_FLOAT", "tensorShape": {"dim": [{"size": "3"}, {"size": "3"}, {"size": "1"}, {"size": "1"}]}}}, "dtype": {"type": "DT_FLOAT"}}}, {"name": "model_52/tf.nn.convolution_66/convolution/filter", "op": "Const", "attr": {"value": {"tensor": {"dtype": "DT_FLOAT", "tensorShape": {"dim": [{"size": "3"}, {"size": "3"}, {"size": "1"}, {"size": "1"}]}}}, "dtype": {"type": "DT_FLOAT"}}}, {"name": "model_52/tf.nn.convolution_67/convolution/filter", "op": "Const", "attr": {"value": {"tensor": {"dtype": "DT_FLOAT", "tensorShape": {"dim": [{"size": "3"}, {"size": "3"}, {"size": "1"}, {"size": "1"}]}}}, "dtype": {"type": "DT_FLOAT"}}}, {"name": "model_52/tf.nn.convolution_68/convolution/filter", "op": "Const", "attr": {"value": {"tensor": {"dtype": "DT_FLOAT", "tensorShape": {"dim": [{"size": "3"}, {"size": "3"}, {"size": "1"}, {"size": "1"}]}}}, "dtype": {"type": "DT_FLOAT"}}}, {"name": "model_52/tf.nn.convolution_69/convolution/filter", "op": "Const", "attr": {"value": {"tensor": {"dtype": "DT_FLOAT", "tensorShape": {"dim": [{"size": "3"}, {"size": "3"}, {"size": "1"}, {"size": "1"}]}}}, "dtype": {"type": "DT_FLOAT"}}}, {"name": "model_52/tf.nn.convolution_70/convolution/filter", "op": "Const", "attr": {"value": {"tensor": {"dtype": "DT_FLOAT", "tensorShape": {"dim": [{"size": "3"}, {"size": "3"}, {"size": "1"}, {"size": "1"}]}}}, "dtype": {"type": "DT_FLOAT"}}}, {"name": "model_52/tf.nn.convolution_71/convolution/filter", "op": "Const", "attr": {"value": {"tensor": {"dtype": "DT_FLOAT", "tensorShape": {"dim": [{"size": "3"}, {"size": "3"}, {"size": "1"}, {"size": "1"}]}}}, "dtype": {"type": "DT_FLOAT"}}}, {"name": "model_52/tf.nn.convolution_72/convolution/filter", "op": "Const", "attr": {"value": {"tensor": {"dtype": "DT_FLOAT", "tensorShape": {"dim": [{"size": "3"}, {"size": "3"}, {"size": "1"}, {"size": "1"}]}}}, "dtype": {"type": "DT_FLOAT"}}}, {"name": "model_52/tf.nn.convolution_73/convolution/filter", "op": "Const", "attr": {"value": {"tensor": {"dtype": "DT_FLOAT", "tensorShape": {"dim": [{"size": "3"}, {"size": "3"}, {"size": "1"}, {"size": "1"}]}}}, "dtype": {"type": "DT_FLOAT"}}}, {"name": "model_52/tf.nn.convolution_74/convolution/filter", "op": "Const", "attr": {"value": {"tensor": {"dtype": "DT_FLOAT", "tensorShape": {"dim": [{"size": "3"}, {"size": "3"}, {"size": "1"}, {"size": "1"}]}}}, "dtype": {"type": "DT_FLOAT"}}}, {"name": "model_52/tf.nn.convolution_75/convolution/filter", "op": "Const", "attr": {"value": {"tensor": {"dtype": "DT_FLOAT", "tensorShape": {"dim": [{"size": "3"}, {"size": "3"}, {"size": "1"}, {"size": "1"}]}}}, "dtype": {"type": "DT_FLOAT"}}}, {"name": "model_52/tf.nn.convolution_76/convolution/filter", "op": "Const", "attr": {"value": {"tensor": {"dtype": "DT_FLOAT", "tensorShape": {"dim": [{"size": "3"}, {"size": "3"}, {"size": "1"}, {"size": "1"}]}}}, "dtype": {"type": "DT_FLOAT"}}}, {"name": "model_52/tf.nn.convolution_77/convolution/filter", "op": "Const", "attr": {"value": {"tensor": {"dtype": "DT_FLOAT", "tensorShape": {"dim": [{"size": "3"}, {"size": "3"}, {"size": "1"}, {"size": "1"}]}}}, "dtype": {"type": "DT_FLOAT"}}}, {"name": "model_52/tf.nn.convolution_78/convolution/filter", "op": "Const", "attr": {"value": {"tensor": {"dtype": "DT_FLOAT", "tensorShape": {"dim": [{"size": "3"}, {"size": "3"}, {"size": "1"}, {"size": "1"}]}}}, "dtype": {"type": "DT_FLOAT"}}}, {"name": "model_52/tf.nn.convolution_79/convolution/filter", "op": "Const", "attr": {"value": {"tensor": {"dtype": "DT_FLOAT", "tensorShape": {"dim": [{"size": "3"}, {"size": "3"}, {"size": "1"}, {"size": "1"}]}}}, "dtype": {"type": "DT_FLOAT"}}}, {"name": "model_52/tf.nn.convolution_80/convolution/filter", "op": "Const", "attr": {"value": {"tensor": {"dtype": "DT_FLOAT", "tensorShape": {"dim": [{"size": "3"}, {"size": "3"}, {"size": "1"}, {"size": "1"}]}}}, "dtype": {"type": "DT_FLOAT"}}}, {"name": "model_52/tf.nn.convolution_81/convolution/filter", "op": "Const", "attr": {"value": {"tensor": {"dtype": "DT_FLOAT", "tensorShape": {"dim": [{"size": "3"}, {"size": "3"}, {"size": "1"}, {"size": "1"}]}}}, "dtype": {"type": "DT_FLOAT"}}}, {"name": "model_52/tf.nn.convolution_82/convolution/filter", "op": "Const", "attr": {"value": {"tensor": {"dtype": "DT_FLOAT", "tensorShape": {"dim": [{"size": "3"}, {"size": "3"}, {"size": "1"}, {"size": "1"}]}}}, "dtype": {"type": "DT_FLOAT"}}}, {"name": "model_52/tf.nn.convolution_83/convolution/filter", "op": "Const", "attr": {"value": {"tensor": {"dtype": "DT_FLOAT", "tensorShape": {"dim": [{"size": "3"}, {"size": "3"}, {"size": "1"}, {"size": "1"}]}}}, "dtype": {"type": "DT_FLOAT"}}}, {"name": "model_52/tf.nn.convolution_84/convolution/filter", "op": "Const", "attr": {"value": {"tensor": {"dtype": "DT_FLOAT", "tensorShape": {"dim": [{"size": "3"}, {"size": "3"}, {"size": "1"}, {"size": "1"}]}}}, "dtype": {"type": "DT_FLOAT"}}}, {"name": "model_52/tf.nn.convolution_85/convolution/filter", "op": "Const", "attr": {"value": {"tensor": {"dtype": "DT_FLOAT", "tensorShape": {"dim": [{"size": "3"}, {"size": "3"}, {"size": "1"}, {"size": "1"}]}}}, "dtype": {"type": "DT_FLOAT"}}}, {"name": "model_52/tf.nn.convolution_86/convolution/filter", "op": "Const", "attr": {"value": {"tensor": {"dtype": "DT_FLOAT", "tensorShape": {"dim": [{"size": "3"}, {"size": "3"}, {"size": "1"}, {"size": "1"}]}}}, "dtype": {"type": "DT_FLOAT"}}}, {"name": "model_52/tf.nn.convolution_87/convolution/filter", "op": "Const", "attr": {"value": {"tensor": {"dtype": "DT_FLOAT", "tensorShape": {"dim": [{"size": "3"}, {"size": "3"}, {"size": "1"}, {"size": "1"}]}}}, "dtype": {"type": "DT_FLOAT"}}}, {"name": "model_52/tf.nn.convolution_88/convolution/filter", "op": "Const", "attr": {"value": {"tensor": {"dtype": "DT_FLOAT", "tensorShape": {"dim": [{"size": "3"}, {"size": "3"}, {"size": "1"}, {"size": "1"}]}}}, "dtype": {"type": "DT_FLOAT"}}}, {"name": "model_52/tf.nn.convolution_89/convolution/filter", "op": "Const", "attr": {"value": {"tensor": {"dtype": "DT_FLOAT", "tensorShape": {"dim": [{"size": "3"}, {"size": "3"}, {"size": "1"}, {"size": "1"}]}}}, "dtype": {"type": "DT_FLOAT"}}}, {"name": "model_52/tf.nn.convolution_90/convolution/filter", "op": "Const", "attr": {"value": {"tensor": {"dtype": "DT_FLOAT", "tensorShape": {"dim": [{"size": "3"}, {"size": "3"}, {"size": "1"}, {"size": "1"}]}}}, "dtype": {"type": "DT_FLOAT"}}}, {"name": "model_52/tf.nn.convolution_91/convolution/filter", "op": "Const", "attr": {"value": {"tensor": {"dtype": "DT_FLOAT", "tensorShape": {"dim": [{"size": "3"}, {"size": "3"}, {"size": "1"}, {"size": "1"}]}}}, "dtype": {"type": "DT_FLOAT"}}}, {"name": "model_52/tf.nn.convolution_92/convolution/filter", "op": "Const", "attr": {"value": {"tensor": {"dtype": "DT_FLOAT", "tensorShape": {"dim": [{"size": "3"}, {"size": "3"}, {"size": "1"}, {"size": "1"}]}}}, "dtype": {"type": "DT_FLOAT"}}}, {"name": "model_52/tf.nn.convolution_93/convolution/filter", "op": "Const", "attr": {"value": {"tensor": {"dtype": "DT_FLOAT", "tensorShape": {"dim": [{"size": "3"}, {"size": "3"}, {"size": "1"}, {"size": "1"}]}}}, "dtype": {"type": "DT_FLOAT"}}}, {"name": "model_52/tf.nn.convolution_94/convolution/filter", "op": "Const", "attr": {"value": {"tensor": {"dtype": "DT_FLOAT", "tensorShape": {"dim": [{"size": "3"}, {"size": "3"}, {"size": "1"}, {"size": "1"}]}}}, "dtype": {"type": "DT_FLOAT"}}}, {"name": "model_52/tf.nn.convolution_95/convolution/filter", "op": "Const", "attr": {"value": {"tensor": {"dtype": "DT_FLOAT", "tensorShape": {"dim": [{"size": "3"}, {"size": "3"}, {"size": "1"}, {"size": "1"}]}}}, "dtype": {"type": "DT_FLOAT"}}}, {"name": "model_52/tf.nn.convolution_96/convolution/filter", "op": "Const", "attr": {"value": {"tensor": {"dtype": "DT_FLOAT", "tensorShape": {"dim": [{"size": "3"}, {"size": "3"}, {"size": "1"}, {"size": "1"}]}}}, "dtype": {"type": "DT_FLOAT"}}}, {"name": "model_52/tf.nn.convolution_97/convolution/filter", "op": "Const", "attr": {"value": {"tensor": {"dtype": "DT_FLOAT", "tensorShape": {"dim": [{"size": "3"}, {"size": "3"}, {"size": "1"}, {"size": "1"}]}}}, "dtype": {"type": "DT_FLOAT"}}}, {"name": "model_52/tf.nn.convolution_98/convolution/filter", "op": "Const", "attr": {"value": {"tensor": {"dtype": "DT_FLOAT", "tensorShape": {"dim": [{"size": "3"}, {"size": "3"}, {"size": "1"}, {"size": "1"}]}}}, "dtype": {"type": "DT_FLOAT"}}}, {"name": "model_52/tf.nn.convolution_99/convolution/filter", "op": "Const", "attr": {"value": {"tensor": {"dtype": "DT_FLOAT", "tensorShape": {"dim": [{"size": "3"}, {"size": "3"}, {"size": "1"}, {"size": "1"}]}}}, "dtype": {"type": "DT_FLOAT"}}}, {"name": "model_52/tf.nn.convolution_100/convolution/filter", "op": "Const", "attr": {"value": {"tensor": {"dtype": "DT_FLOAT", "tensorShape": {"dim": [{"size": "3"}, {"size": "3"}, {"size": "1"}, {"size": "1"}]}}}, "dtype": {"type": "DT_FLOAT"}}}, {"name": "model_52/tf.nn.convolution_101/convolution/filter", "op": "Const", "attr": {"value": {"tensor": {"dtype": "DT_FLOAT", "tensorShape": {"dim": [{"size": "3"}, {"size": "3"}, {"size": "1"}, {"size": "1"}]}}}, "dtype": {"type": "DT_FLOAT"}}}, {"name": "model_52/tf.nn.convolution_102/convolution/filter", "op": "Const", "attr": {"value": {"tensor": {"dtype": "DT_FLOAT", "tensorShape": {"dim": [{"size": "3"}, {"size": "3"}, {"size": "1"}, {"size": "1"}]}}}, "dtype": {"type": "DT_FLOAT"}}}, {"name": "model_52/tf.nn.convolution_103/convolution/filter", "op": "Const", "attr": {"value": {"tensor": {"dtype": "DT_FLOAT", "tensorShape": {"dim": [{"size": "3"}, {"size": "3"}, {"size": "1"}, {"size": "1"}]}}}, "dtype": {"type": "DT_FLOAT"}}}, {"name": "model_52/tf.nn.convolution_104/convolution/filter", "op": "Const", "attr": {"value": {"tensor": {"dtype": "DT_FLOAT", "tensorShape": {"dim": [{"size": "3"}, {"size": "3"}, {"size": "1"}, {"size": "1"}]}}}, "dtype": {"type": "DT_FLOAT"}}}, {"name": "model_52/tf.nn.convolution_105/convolution/filter", "op": "Const", "attr": {"value": {"tensor": {"dtype": "DT_FLOAT", "tensorShape": {"dim": [{"size": "3"}, {"size": "3"}, {"size": "1"}, {"size": "1"}]}}}, "dtype": {"type": "DT_FLOAT"}}}, {"name": "model_52/tf.nn.convolution_106/convolution/filter", "op": "Const", "attr": {"value": {"tensor": {"dtype": "DT_FLOAT", "tensorShape": {"dim": [{"size": "3"}, {"size": "3"}, {"size": "1"}, {"size": "1"}]}}}, "dtype": {"type": "DT_FLOAT"}}}, {"name": "model_52/tf.nn.convolution_107/convolution/filter", "op": "Const", "attr": {"value": {"tensor": {"dtype": "DT_FLOAT", "tensorShape": {"dim": [{"size": "3"}, {"size": "3"}, {"size": "1"}, {"size": "1"}]}}}, "dtype": {"type": "DT_FLOAT"}}}, {"name": "model_52/tf.nn.convolution_108/convolution/filter", "op": "Const", "attr": {"value": {"tensor": {"dtype": "DT_FLOAT", "tensorShape": {"dim": [{"size": "3"}, {"size": "3"}, {"size": "1"}, {"size": "1"}]}}}, "dtype": {"type": "DT_FLOAT"}}}, {"name": "model_52/tf.nn.convolution_109/convolution/filter", "op": "Const", "attr": {"value": {"tensor": {"dtype": "DT_FLOAT", "tensorShape": {"dim": [{"size": "3"}, {"size": "3"}, {"size": "1"}, {"size": "1"}]}}}, "dtype": {"type": "DT_FLOAT"}}}, {"name": "model_52/tf.nn.convolution_110/convolution/filter", "op": "Const", "attr": {"value": {"tensor": {"dtype": "DT_FLOAT", "tensorShape": {"dim": [{"size": "3"}, {"size": "3"}, {"size": "1"}, {"size": "1"}]}}}, "dtype": {"type": "DT_FLOAT"}}}, {"name": "model_52/tf.nn.convolution_111/convolution/filter", "op": "Const", "attr": {"value": {"tensor": {"dtype": "DT_FLOAT", "tensorShape": {"dim": [{"size": "3"}, {"size": "3"}, {"size": "1"}, {"size": "1"}]}}}, "dtype": {"type": "DT_FLOAT"}}}, {"name": "model_52/tf.nn.convolution_112/convolution/filter", "op": "Const", "attr": {"value": {"tensor": {"dtype": "DT_FLOAT", "tensorShape": {"dim": [{"size": "3"}, {"size": "3"}, {"size": "1"}, {"size": "1"}]}}}, "dtype": {"type": "DT_FLOAT"}}}, {"name": "model_52/tf.nn.convolution_113/convolution/filter", "op": "Const", "attr": {"value": {"tensor": {"dtype": "DT_FLOAT", "tensorShape": {"dim": [{"size": "3"}, {"size": "3"}, {"size": "1"}, {"size": "1"}]}}}, "dtype": {"type": "DT_FLOAT"}}}, {"name": "model_52/tf.nn.convolution_114/convolution/filter", "op": "Const", "attr": {"value": {"tensor": {"dtype": "DT_FLOAT", "tensorShape": {"dim": [{"size": "3"}, {"size": "3"}, {"size": "1"}, {"size": "1"}]}}}, "dtype": {"type": "DT_FLOAT"}}}, {"name": "model_52/tf.nn.convolution_115/convolution/filter", "op": "Const", "attr": {"value": {"tensor": {"dtype": "DT_FLOAT", "tensorShape": {"dim": [{"size": "3"}, {"size": "3"}, {"size": "1"}, {"size": "1"}]}}}, "dtype": {"type": "DT_FLOAT"}}}, {"name": "model_52/tf.nn.convolution_116/convolution/filter", "op": "Const", "attr": {"value": {"tensor": {"dtype": "DT_FLOAT", "tensorShape": {"dim": [{"size": "3"}, {"size": "3"}, {"size": "1"}, {"size": "1"}]}}}, "dtype": {"type": "DT_FLOAT"}}}, {"name": "model_52/tf.nn.convolution_117/convolution/filter", "op": "Const", "attr": {"value": {"tensor": {"dtype": "DT_FLOAT", "tensorShape": {"dim": [{"size": "3"}, {"size": "3"}, {"size": "1"}, {"size": "1"}]}}}, "dtype": {"type": "DT_FLOAT"}}}, {"name": "model_52/tf.nn.convolution_118/convolution/filter", "op": "Const", "attr": {"value": {"tensor": {"dtype": "DT_FLOAT", "tensorShape": {"dim": [{"size": "3"}, {"size": "3"}, {"size": "1"}, {"size": "1"}]}}}, "dtype": {"type": "DT_FLOAT"}}}, {"name": "model_52/tf.nn.convolution_119/convolution/filter", "op": "Const", "attr": {"value": {"tensor": {"dtype": "DT_FLOAT", "tensorShape": {"dim": [{"size": "3"}, {"size": "3"}, {"size": "1"}, {"size": "1"}]}}}, "dtype": {"type": "DT_FLOAT"}}}, {"name": "model_52/tf.nn.convolution_120/convolution/filter", "op": "Const", "attr": {"value": {"tensor": {"dtype": "DT_FLOAT", "tensorShape": {"dim": [{"size": "3"}, {"size": "3"}, {"size": "1"}, {"size": "1"}]}}}, "dtype": {"type": "DT_FLOAT"}}}, {"name": "model_52/tf.nn.convolution_121/convolution/filter", "op": "Const", "attr": {"value": {"tensor": {"dtype": "DT_FLOAT", "tensorShape": {"dim": [{"size": "3"}, {"size": "3"}, {"size": "1"}, {"size": "1"}]}}}, "dtype": {"type": "DT_FLOAT"}}}, {"name": "model_52/tf.nn.convolution_122/convolution/filter", "op": "Const", "attr": {"value": {"tensor": {"dtype": "DT_FLOAT", "tensorShape": {"dim": [{"size": "3"}, {"size": "3"}, {"size": "1"}, {"size": "1"}]}}}, "dtype": {"type": "DT_FLOAT"}}}, {"name": "model_52/tf.nn.convolution_123/convolution/filter", "op": "Const", "attr": {"value": {"tensor": {"dtype": "DT_FLOAT", "tensorShape": {"dim": [{"size": "3"}, {"size": "3"}, {"size": "1"}, {"size": "1"}]}}}, "dtype": {"type": "DT_FLOAT"}}}, {"name": "model_52/tf.nn.convolution_124/convolution/filter", "op": "Const", "attr": {"value": {"tensor": {"dtype": "DT_FLOAT", "tensorShape": {"dim": [{"size": "3"}, {"size": "3"}, {"size": "1"}, {"size": "1"}]}}}, "dtype": {"type": "DT_FLOAT"}}}, {"name": "model_52/tf.nn.convolution_125/convolution/filter", "op": "Const", "attr": {"value": {"tensor": {"dtype": "DT_FLOAT", "tensorShape": {"dim": [{"size": "3"}, {"size": "3"}, {"size": "1"}, {"size": "1"}]}}}, "dtype": {"type": "DT_FLOAT"}}}, {"name": "model_52/tf.nn.convolution_126/convolution/filter", "op": "Const", "attr": {"value": {"tensor": {"dtype": "DT_FLOAT", "tensorShape": {"dim": [{"size": "3"}, {"size": "3"}, {"size": "1"}, {"size": "1"}]}}}, "dtype": {"type": "DT_FLOAT"}}}, {"name": "model_52/tf.nn.convolution_127/convolution/filter", "op": "Const", "attr": {"value": {"tensor": {"dtype": "DT_FLOAT", "tensorShape": {"dim": [{"size": "3"}, {"size": "3"}, {"size": "1"}, {"size": "1"}]}}}, "dtype": {"type": "DT_FLOAT"}}}, {"name": "model_52/tf.nn.convolution_128/convolution/filter", "op": "Const", "attr": {"value": {"tensor": {"dtype": "DT_FLOAT", "tensorShape": {"dim": [{"size": "3"}, {"size": "3"}, {"size": "1"}, {"size": "1"}]}}}, "dtype": {"type": "DT_FLOAT"}}}, {"name": "model_52/tf.nn.convolution_129/convolution/filter", "op": "Const", "attr": {"value": {"tensor": {"dtype": "DT_FLOAT", "tensorShape": {"dim": [{"size": "3"}, {"size": "3"}, {"size": "1"}, {"size": "1"}]}}}, "dtype": {"type": "DT_FLOAT"}}}, {"name": "model_52/tf.nn.convolution_130/convolution/filter", "op": "Const", "attr": {"value": {"tensor": {"dtype": "DT_FLOAT", "tensorShape": {"dim": [{"size": "3"}, {"size": "3"}, {"size": "1"}, {"size": "1"}]}}}, "dtype": {"type": "DT_FLOAT"}}}, {"name": "model_52/tf.nn.convolution_131/convolution/filter", "op": "Const", "attr": {"value": {"tensor": {"dtype": "DT_FLOAT", "tensorShape": {"dim": [{"size": "3"}, {"size": "3"}, {"size": "1"}, {"size": "1"}]}}}, "dtype": {"type": "DT_FLOAT"}}}, {"name": "model_52/tf.nn.convolution_132/convolution/filter", "op": "Const", "attr": {"value": {"tensor": {"dtype": "DT_FLOAT", "tensorShape": {"dim": [{"size": "3"}, {"size": "3"}, {"size": "1"}, {"size": "1"}]}}}, "dtype": {"type": "DT_FLOAT"}}}, {"name": "model_52/tf.nn.convolution_133/convolution/filter", "op": "Const", "attr": {"value": {"tensor": {"dtype": "DT_FLOAT", "tensorShape": {"dim": [{"size": "3"}, {"size": "3"}, {"size": "1"}, {"size": "1"}]}}}, "dtype": {"type": "DT_FLOAT"}}}, {"name": "model_52/tf.nn.convolution_134/convolution/filter", "op": "Const", "attr": {"value": {"tensor": {"dtype": "DT_FLOAT", "tensorShape": {"dim": [{"size": "3"}, {"size": "3"}, {"size": "1"}, {"size": "1"}]}}}, "dtype": {"type": "DT_FLOAT"}}}, {"name": "model_52/tf.nn.convolution_135/convolution/filter", "op": "Const", "attr": {"value": {"tensor": {"dtype": "DT_FLOAT", "tensorShape": {"dim": [{"size": "3"}, {"size": "3"}, {"size": "1"}, {"size": "1"}]}}}, "dtype": {"type": "DT_FLOAT"}}}, {"name": "model_52/tf.nn.convolution_136/convolution/filter", "op": "Const", "attr": {"value": {"tensor": {"dtype": "DT_FLOAT", "tensorShape": {"dim": [{"size": "3"}, {"size": "3"}, {"size": "1"}, {"size": "1"}]}}}, "dtype": {"type": "DT_FLOAT"}}}, {"name": "model_52/tf.nn.convolution_137/convolution/filter", "op": "Const", "attr": {"value": {"tensor": {"dtype": "DT_FLOAT", "tensorShape": {"dim": [{"size": "3"}, {"size": "3"}, {"size": "1"}, {"size": "1"}]}}}, "dtype": {"type": "DT_FLOAT"}}}, {"name": "model_52/tf.nn.convolution_138/convolution/filter", "op": "Const", "attr": {"value": {"tensor": {"dtype": "DT_FLOAT", "tensorShape": {"dim": [{"size": "3"}, {"size": "3"}, {"size": "1"}, {"size": "1"}]}}}, "dtype": {"type": "DT_FLOAT"}}}, {"name": "model_52/tf.nn.convolution_139/convolution/filter", "op": "Const", "attr": {"value": {"tensor": {"dtype": "DT_FLOAT", "tensorShape": {"dim": [{"size": "3"}, {"size": "3"}, {"size": "1"}, {"size": "1"}]}}}, "dtype": {"type": "DT_FLOAT"}}}, {"name": "model_52/tf.nn.convolution_140/convolution/filter", "op": "Const", "attr": {"value": {"tensor": {"dtype": "DT_FLOAT", "tensorShape": {"dim": [{"size": "3"}, {"size": "3"}, {"size": "1"}, {"size": "1"}]}}}, "dtype": {"type": "DT_FLOAT"}}}, {"name": "model_52/tf.nn.convolution_141/convolution/filter", "op": "Const", "attr": {"value": {"tensor": {"dtype": "DT_FLOAT", "tensorShape": {"dim": [{"size": "3"}, {"size": "3"}, {"size": "1"}, {"size": "1"}]}}}, "dtype": {"type": "DT_FLOAT"}}}, {"name": "model_52/tf.nn.convolution_142/convolution/filter", "op": "Const", "attr": {"value": {"tensor": {"dtype": "DT_FLOAT", "tensorShape": {"dim": [{"size": "3"}, {"size": "3"}, {"size": "1"}, {"size": "1"}]}}}, "dtype": {"type": "DT_FLOAT"}}}, {"name": "model_52/tf.nn.convolution_143/convolution/filter", "op": "Const", "attr": {"value": {"tensor": {"dtype": "DT_FLOAT", "tensorShape": {"dim": [{"size": "3"}, {"size": "3"}, {"size": "1"}, {"size": "1"}]}}}, "dtype": {"type": "DT_FLOAT"}}}, {"name": "model_52/tf.nn.convolution_144/convolution/filter", "op": "Const", "attr": {"value": {"tensor": {"dtype": "DT_FLOAT", "tensorShape": {"dim": [{"size": "3"}, {"size": "3"}, {"size": "1"}, {"size": "1"}]}}}, "dtype": {"type": "DT_FLOAT"}}}, {"name": "model_52/tf.nn.convolution_145/convolution/filter", "op": "Const", "attr": {"value": {"tensor": {"dtype": "DT_FLOAT", "tensorShape": {"dim": [{"size": "3"}, {"size": "3"}, {"size": "1"}, {"size": "1"}]}}}, "dtype": {"type": "DT_FLOAT"}}}, {"name": "model_52/tf.nn.convolution_146/convolution/filter", "op": "Const", "attr": {"value": {"tensor": {"dtype": "DT_FLOAT", "tensorShape": {"dim": [{"size": "3"}, {"size": "3"}, {"size": "1"}, {"size": "1"}]}}}, "dtype": {"type": "DT_FLOAT"}}}, {"name": "model_52/tf.nn.convolution_147/convolution/filter", "op": "Const", "attr": {"value": {"tensor": {"dtype": "DT_FLOAT", "tensorShape": {"dim": [{"size": "3"}, {"size": "3"}, {"size": "1"}, {"size": "1"}]}}}, "dtype": {"type": "DT_FLOAT"}}}, {"name": "model_52/tf.nn.convolution_148/convolution/filter", "op": "Const", "attr": {"value": {"tensor": {"dtype": "DT_FLOAT", "tensorShape": {"dim": [{"size": "3"}, {"size": "3"}, {"size": "1"}, {"size": "1"}]}}}, "dtype": {"type": "DT_FLOAT"}}}, {"name": "model_52/tf.nn.convolution_149/convolution/filter", "op": "Const", "attr": {"value": {"tensor": {"dtype": "DT_FLOAT", "tensorShape": {"dim": [{"size": "3"}, {"size": "3"}, {"size": "1"}, {"size": "1"}]}}}, "dtype": {"type": "DT_FLOAT"}}}, {"name": "model_52/tf.nn.convolution_150/convolution/filter", "op": "Const", "attr": {"value": {"tensor": {"dtype": "DT_FLOAT", "tensorShape": {"dim": [{"size": "3"}, {"size": "3"}, {"size": "1"}, {"size": "1"}]}}}, "dtype": {"type": "DT_FLOAT"}}}, {"name": "model_52/tf.nn.convolution_151/convolution/filter", "op": "Const", "attr": {"value": {"tensor": {"dtype": "DT_FLOAT", "tensorShape": {"dim": [{"size": "3"}, {"size": "3"}, {"size": "1"}, {"size": "1"}]}}}, "dtype": {"type": "DT_FLOAT"}}}, {"name": "model_52/tf.nn.convolution_152/convolution/filter", "op": "Const", "attr": {"value": {"tensor": {"dtype": "DT_FLOAT", "tensorShape": {"dim": [{"size": "3"}, {"size": "3"}, {"size": "1"}, {"size": "1"}]}}}, "dtype": {"type": "DT_FLOAT"}}}, {"name": "model_52/tf.nn.convolution_153/convolution/filter", "op": "Const", "attr": {"value": {"tensor": {"dtype": "DT_FLOAT", "tensorShape": {"dim": [{"size": "3"}, {"size": "3"}, {"size": "1"}, {"size": "1"}]}}}, "dtype": {"type": "DT_FLOAT"}}}, {"name": "model_52/tf.nn.convolution_154/convolution/filter", "op": "Const", "attr": {"value": {"tensor": {"dtype": "DT_FLOAT", "tensorShape": {"dim": [{"size": "3"}, {"size": "3"}, {"size": "1"}, {"size": "1"}]}}}, "dtype": {"type": "DT_FLOAT"}}}, {"name": "model_52/tf.nn.convolution_155/convolution/filter", "op": "Const", "attr": {"value": {"tensor": {"dtype": "DT_FLOAT", "tensorShape": {"dim": [{"size": "3"}, {"size": "3"}, {"size": "1"}, {"size": "1"}]}}}, "dtype": {"type": "DT_FLOAT"}}}, {"name": "model_52/tf.nn.convolution_156/convolution/filter", "op": "Const", "attr": {"value": {"tensor": {"dtype": "DT_FLOAT", "tensorShape": {"dim": [{"size": "3"}, {"size": "3"}, {"size": "1"}, {"size": "1"}]}}}, "dtype": {"type": "DT_FLOAT"}}}, {"name": "model_52/tf.nn.convolution_157/convolution/filter", "op": "Const", "attr": {"value": {"tensor": {"dtype": "DT_FLOAT", "tensorShape": {"dim": [{"size": "3"}, {"size": "3"}, {"size": "1"}, {"size": "1"}]}}}, "dtype": {"type": "DT_FLOAT"}}}, {"name": "model_52/tf.nn.convolution_158/convolution/filter", "op": "Const", "attr": {"value": {"tensor": {"dtype": "DT_FLOAT", "tensorShape": {"dim": [{"size": "3"}, {"size": "3"}, {"size": "1"}, {"size": "1"}]}}}, "dtype": {"type": "DT_FLOAT"}}}, {"name": "model_52/tf.nn.convolution_159/convolution/filter", "op": "Const", "attr": {"value": {"tensor": {"dtype": "DT_FLOAT", "tensorShape": {"dim": [{"size": "3"}, {"size": "3"}, {"size": "1"}, {"size": "1"}]}}}, "dtype": {"type": "DT_FLOAT"}}}, {"name": "model_52/tf.split/split/split_dim", "op": "Const", "attr": {"value": {"tensor": {"dtype": "DT_INT32", "tensorShape": {}}}, "dtype": {"type": "DT_INT32"}}}, {"name": "model_52/tf.strided_slice_6/ones_like/tensor", "op": "Const", "attr": {"value": {"tensor": {"dtype": "DT_INT64", "tensorShape": {"dim": [{"size": "4"}]}}}, "dtype": {"type": "DT_INT64"}}}, {"name": "model_52/tf.strided_slice_6/StridedSlice/end", "op": "Const", "attr": {"value": {"tensor": {"dtype": "DT_INT64", "tensorShape": {"dim": [{"size": "4"}]}}}, "dtype": {"type": "DT_INT64"}}}, {"name": "model_52/tf.strided_slice_6/ones_like", "op": "Const", "attr": {"value": {"tensor": {"dtype": "DT_INT64", "tensorShape": {"dim": [{"size": "4"}]}}}, "dtype": {"type": "DT_INT64"}}}, {"name": "model_52/tf.nn.convolution_23/convolution/filter", "op": "Const", "attr": {"value": {"tensor": {"dtype": "DT_FLOAT", "tensorShape": {"dim": [{"size": "1"}, {"size": "1"}, {"size": "128"}, {"size": "64"}]}}}, "dtype": {"type": "DT_FLOAT"}}}, {"name": "model_52/tf.math.add_31/Add/y", "op": "Const", "attr": {"value": {"tensor": {"dtype": "DT_FLOAT", "tensorShape": {"dim": [{"size": "64"}]}}}, "dtype": {"type": "DT_FLOAT"}}}, {"name": "model_52/tf.nn.convolution_25/convolution/filter", "op": "Const", "attr": {"value": {"tensor": {"dtype": "DT_FLOAT", "tensorShape": {"dim": [{"size": "3"}, {"size": "3"}, {"size": "64"}, {"size": "64"}]}}}, "dtype": {"type": "DT_FLOAT"}}}, {"name": "model_52/tf.math.add_33/Add/y", "op": "Const", "attr": {"value": {"tensor": {"dtype": "DT_FLOAT", "tensorShape": {"dim": [{"size": "64"}]}}}, "dtype": {"type": "DT_FLOAT"}}}, {"name": "model_52/tf.nn.convolution_26/convolution/filter", "op": "Const", "attr": {"value": {"tensor": {"dtype": "DT_FLOAT", "tensorShape": {"dim": [{"size": "3"}, {"size": "3"}, {"size": "64"}, {"size": "64"}]}}}, "dtype": {"type": "DT_FLOAT"}}}, {"name": "model_52/tf.math.add_34/Add/y", "op": "Const", "attr": {"value": {"tensor": {"dtype": "DT_FLOAT", "tensorShape": {"dim": [{"size": "64"}]}}}, "dtype": {"type": "DT_FLOAT"}}}, {"name": "model_52/tf.nn.convolution_27/convolution/filter", "op": "Const", "attr": {"value": {"tensor": {"dtype": "DT_FLOAT", "tensorShape": {"dim": [{"size": "3"}, {"size": "3"}, {"size": "64"}, {"size": "64"}]}}}, "dtype": {"type": "DT_FLOAT"}}}, {"name": "model_52/tf.math.add_37/Add/y", "op": "Const", "attr": {"value": {"tensor": {"dtype": "DT_FLOAT", "tensorShape": {"dim": [{"size": "64"}]}}}, "dtype": {"type": "DT_FLOAT"}}}, {"name": "model_52/tf.nn.convolution_28/convolution/filter", "op": "Const", "attr": {"value": {"tensor": {"dtype": "DT_FLOAT", "tensorShape": {"dim": [{"size": "3"}, {"size": "3"}, {"size": "64"}, {"size": "64"}]}}}, "dtype": {"type": "DT_FLOAT"}}}, {"name": "model_52/tf.math.add_38/Add/y", "op": "Const", "attr": {"value": {"tensor": {"dtype": "DT_FLOAT", "tensorShape": {"dim": [{"size": "64"}]}}}, "dtype": {"type": "DT_FLOAT"}}}, {"name": "model_52/tf.strided_slice_4/ones_like/tensor", "op": "Const", "attr": {"value": {"tensor": {"dtype": "DT_INT64", "tensorShape": {"dim": [{"size": "4"}]}}}, "dtype": {"type": "DT_INT64"}}}, {"name": "model_52/tf.strided_slice_4/StridedSlice/end", "op": "Const", "attr": {"value": {"tensor": {"dtype": "DT_INT64", "tensorShape": {"dim": [{"size": "4"}]}}}, "dtype": {"type": "DT_INT64"}}}, {"name": "model_52/tf.strided_slice_4/ones_like", "op": "Const", "attr": {"value": {"tensor": {"dtype": "DT_INT64", "tensorShape": {"dim": [{"size": "4"}]}}}, "dtype": {"type": "DT_INT64"}}}, {"name": "model_52/tf.nn.convolution_13/convolution/filter", "op": "Const", "attr": {"value": {"tensor": {"dtype": "DT_FLOAT", "tensorShape": {"dim": [{"size": "1"}, {"size": "1"}, {"size": "64"}, {"size": "32"}]}}}, "dtype": {"type": "DT_FLOAT"}}}, {"name": "model_52/tf.math.add_17/Add/y", "op": "Const", "attr": {"value": {"tensor": {"dtype": "DT_FLOAT", "tensorShape": {"dim": [{"size": "32"}]}}}, "dtype": {"type": "DT_FLOAT"}}}, {"name": "model_52/tf.nn.convolution_15/convolution/filter", "op": "Const", "attr": {"value": {"tensor": {"dtype": "DT_FLOAT", "tensorShape": {"dim": [{"size": "3"}, {"size": "3"}, {"size": "32"}, {"size": "32"}]}}}, "dtype": {"type": "DT_FLOAT"}}}, {"name": "model_52/tf.math.add_19/Add/y", "op": "Const", "attr": {"value": {"tensor": {"dtype": "DT_FLOAT", "tensorShape": {"dim": [{"size": "32"}]}}}, "dtype": {"type": "DT_FLOAT"}}}, {"name": "model_52/tf.nn.convolution_16/convolution/filter", "op": "Const", "attr": {"value": {"tensor": {"dtype": "DT_FLOAT", "tensorShape": {"dim": [{"size": "3"}, {"size": "3"}, {"size": "32"}, {"size": "32"}]}}}, "dtype": {"type": "DT_FLOAT"}}}, {"name": "model_52/tf.math.add_20/Add/y", "op": "Const", "attr": {"value": {"tensor": {"dtype": "DT_FLOAT", "tensorShape": {"dim": [{"size": "32"}]}}}, "dtype": {"type": "DT_FLOAT"}}}, {"name": "model_52/tf.nn.convolution_17/convolution/filter", "op": "Const", "attr": {"value": {"tensor": {"dtype": "DT_FLOAT", "tensorShape": {"dim": [{"size": "3"}, {"size": "3"}, {"size": "32"}, {"size": "32"}]}}}, "dtype": {"type": "DT_FLOAT"}}}, {"name": "model_52/tf.math.add_23/Add/y", "op": "Const", "attr": {"value": {"tensor": {"dtype": "DT_FLOAT", "tensorShape": {"dim": [{"size": "32"}]}}}, "dtype": {"type": "DT_FLOAT"}}}, {"name": "model_52/tf.nn.convolution_18/convolution/filter", "op": "Const", "attr": {"value": {"tensor": {"dtype": "DT_FLOAT", "tensorShape": {"dim": [{"size": "3"}, {"size": "3"}, {"size": "32"}, {"size": "32"}]}}}, "dtype": {"type": "DT_FLOAT"}}}, {"name": "model_52/tf.math.add_24/Add/y", "op": "Const", "attr": {"value": {"tensor": {"dtype": "DT_FLOAT", "tensorShape": {"dim": [{"size": "32"}]}}}, "dtype": {"type": "DT_FLOAT"}}}, {"name": "model_52/tf.strided_slice_2/ones_like/tensor", "op": "Const", "attr": {"value": {"tensor": {"dtype": "DT_INT64", "tensorShape": {"dim": [{"size": "4"}]}}}, "dtype": {"type": "DT_INT64"}}}, {"name": "model_52/tf.strided_slice_2/StridedSlice/end", "op": "Const", "attr": {"value": {"tensor": {"dtype": "DT_INT64", "tensorShape": {"dim": [{"size": "4"}]}}}, "dtype": {"type": "DT_INT64"}}}, {"name": "model_52/tf.strided_slice_2/ones_like", "op": "Const", "attr": {"value": {"tensor": {"dtype": "DT_INT64", "tensorShape": {"dim": [{"size": "4"}]}}}, "dtype": {"type": "DT_INT64"}}}, {"name": "model_52/tf.strided_slice/ones_like/tensor", "op": "Const", "attr": {"value": {"tensor": {"dtype": "DT_INT64", "tensorShape": {"dim": [{"size": "4"}]}}}, "dtype": {"type": "DT_INT64"}}}, {"name": "model_52/tf.strided_slice/StridedSlice/end", "op": "Const", "attr": {"value": {"tensor": {"dtype": "DT_INT64", "tensorShape": {"dim": [{"size": "4"}]}}}, "dtype": {"type": "DT_INT64"}}}, {"name": "model_52/tf.strided_slice/ones_like", "op": "Const", "attr": {"value": {"tensor": {"dtype": "DT_INT64", "tensorShape": {"dim": [{"size": "4"}]}}}, "dtype": {"type": "DT_INT64"}}}, {"name": "model_52/tf.compat.v1.pad/Pad/paddings", "op": "Const", "attr": {"value": {"tensor": {"dtype": "DT_INT32", "tensorShape": {"dim": [{"size": "4"}, {"size": "2"}]}}}, "dtype": {"type": "DT_INT32"}}}, {"name": "model_52/tf.nn.convolution/convolution/filter", "op": "Const", "attr": {"value": {"tensor": {"dtype": "DT_FLOAT", "tensorShape": {"dim": [{"size": "3"}, {"size": "3"}, {"size": "3"}, {"size": "16"}]}}}, "dtype": {"type": "DT_FLOAT"}}}, {"name": "model_52/tf.math.add/Add/y", "op": "Const", "attr": {"value": {"tensor": {"dtype": "DT_FLOAT", "tensorShape": {"dim": [{"size": "16"}]}}}, "dtype": {"type": "DT_FLOAT"}}}, {"name": "model_52/tf.compat.v1.pad_1/Pad/paddings", "op": "Const", "attr": {"value": {"tensor": {"dtype": "DT_INT32", "tensorShape": {"dim": [{"size": "4"}, {"size": "2"}]}}}, "dtype": {"type": "DT_INT32"}}}, {"name": "model_52/tf.nn.convolution_1/convolution/filter", "op": "Const", "attr": {"value": {"tensor": {"dtype": "DT_FLOAT", "tensorShape": {"dim": [{"size": "3"}, {"size": "3"}, {"size": "16"}, {"size": "32"}]}}}, "dtype": {"type": "DT_FLOAT"}}}, {"name": "model_52/tf.math.add_1/Add/y", "op": "Const", "attr": {"value": {"tensor": {"dtype": "DT_FLOAT", "tensorShape": {"dim": [{"size": "32"}]}}}, "dtype": {"type": "DT_FLOAT"}}}, {"name": "model_52/tf.nn.convolution_2/convolution/filter", "op": "Const", "attr": {"value": {"tensor": {"dtype": "DT_FLOAT", "tensorShape": {"dim": [{"size": "1"}, {"size": "1"}, {"size": "32"}, {"size": "32"}]}}}, "dtype": {"type": "DT_FLOAT"}}}, {"name": "model_52/tf.math.add_2/Add/y", "op": "Const", "attr": {"value": {"tensor": {"dtype": "DT_FLOAT", "tensorShape": {"dim": [{"size": "32"}]}}}, "dtype": {"type": "DT_FLOAT"}}}, {"name": "model_52/tf.strided_slice_1/ones_like/tensor", "op": "Const", "attr": {"value": {"tensor": {"dtype": "DT_INT64", "tensorShape": {"dim": [{"size": "4"}]}}}, "dtype": {"type": "DT_INT64"}}}, {"name": "model_52/tf.strided_slice_1/StridedSlice/end", "op": "Const", "attr": {"value": {"tensor": {"dtype": "DT_INT64", "tensorShape": {"dim": [{"size": "4"}]}}}, "dtype": {"type": "DT_INT64"}}}, {"name": "model_52/tf.strided_slice_1/ones_like", "op": "Const", "attr": {"value": {"tensor": {"dtype": "DT_INT64", "tensorShape": {"dim": [{"size": "4"}]}}}, "dtype": {"type": "DT_INT64"}}}, {"name": "model_52/tf.nn.convolution_3/convolution/filter", "op": "Const", "attr": {"value": {"tensor": {"dtype": "DT_FLOAT", "tensorShape": {"dim": [{"size": "3"}, {"size": "3"}, {"size": "16"}, {"size": "8"}]}}}, "dtype": {"type": "DT_FLOAT"}}}, {"name": "model_52/tf.math.add_3/Add/y", "op": "Const", "attr": {"value": {"tensor": {"dtype": "DT_FLOAT", "tensorShape": {"dim": [{"size": "8"}]}}}, "dtype": {"type": "DT_FLOAT"}}}, {"name": "model_52/tf.nn.convolution_4/convolution/filter", "op": "Const", "attr": {"value": {"tensor": {"dtype": "DT_FLOAT", "tensorShape": {"dim": [{"size": "3"}, {"size": "3"}, {"size": "8"}, {"size": "16"}]}}}, "dtype": {"type": "DT_FLOAT"}}}, {"name": "model_52/tf.math.add_4/Add/y", "op": "Const", "attr": {"value": {"tensor": {"dtype": "DT_FLOAT", "tensorShape": {"dim": [{"size": "16"}]}}}, "dtype": {"type": "DT_FLOAT"}}}, {"name": "model_52/tf.concat/concat/axis", "op": "Const", "attr": {"value": {"tensor": {"dtype": "DT_INT32", "tensorShape": {}}}, "dtype": {"type": "DT_INT32"}}}, {"name": "model_52/tf.nn.convolution_5/convolution/filter", "op": "Const", "attr": {"value": {"tensor": {"dtype": "DT_FLOAT", "tensorShape": {"dim": [{"size": "1"}, {"size": "1"}, {"size": "48"}, {"size": "64"}]}}}, "dtype": {"type": "DT_FLOAT"}}}, {"name": "model_52/tf.math.add_7/Add/y", "op": "Const", "attr": {"value": {"tensor": {"dtype": "DT_FLOAT", "tensorShape": {"dim": [{"size": "64"}]}}}, "dtype": {"type": "DT_FLOAT"}}}, {"name": "model_52/tf.compat.v1.pad_2/Pad/paddings", "op": "Const", "attr": {"value": {"tensor": {"dtype": "DT_INT32", "tensorShape": {"dim": [{"size": "4"}, {"size": "2"}]}}}, "dtype": {"type": "DT_INT32"}}}, {"name": "model_52/tf.nn.convolution_6/convolution/filter", "op": "Const", "attr": {"value": {"tensor": {"dtype": "DT_FLOAT", "tensorShape": {"dim": [{"size": "3"}, {"size": "3"}, {"size": "64"}, {"size": "64"}]}}}, "dtype": {"type": "DT_FLOAT"}}}, {"name": "model_52/tf.math.add_8/Add/y", "op": "Const", "attr": {"value": {"tensor": {"dtype": "DT_FLOAT", "tensorShape": {"dim": [{"size": "64"}]}}}, "dtype": {"type": "DT_FLOAT"}}}, {"name": "model_52/tf.nn.convolution_7/convolution/filter", "op": "Const", "attr": {"value": {"tensor": {"dtype": "DT_FLOAT", "tensorShape": {"dim": [{"size": "1"}, {"size": "1"}, {"size": "64"}, {"size": "64"}]}}}, "dtype": {"type": "DT_FLOAT"}}}, {"name": "model_52/tf.math.add_9/Add/y", "op": "Const", "attr": {"value": {"tensor": {"dtype": "DT_FLOAT", "tensorShape": {"dim": [{"size": "64"}]}}}, "dtype": {"type": "DT_FLOAT"}}}, {"name": "model_52/tf.strided_slice_3/ones_like/tensor", "op": "Const", "attr": {"value": {"tensor": {"dtype": "DT_INT64", "tensorShape": {"dim": [{"size": "4"}]}}}, "dtype": {"type": "DT_INT64"}}}, {"name": "model_52/tf.strided_slice_3/StridedSlice/end", "op": "Const", "attr": {"value": {"tensor": {"dtype": "DT_INT64", "tensorShape": {"dim": [{"size": "4"}]}}}, "dtype": {"type": "DT_INT64"}}}, {"name": "model_52/tf.strided_slice_3/ones_like", "op": "Const", "attr": {"value": {"tensor": {"dtype": "DT_INT64", "tensorShape": {"dim": [{"size": "4"}]}}}, "dtype": {"type": "DT_INT64"}}}, {"name": "model_52/tf.nn.convolution_8/convolution/filter", "op": "Const", "attr": {"value": {"tensor": {"dtype": "DT_FLOAT", "tensorShape": {"dim": [{"size": "3"}, {"size": "3"}, {"size": "32"}, {"size": "16"}]}}}, "dtype": {"type": "DT_FLOAT"}}}, {"name": "model_52/tf.math.add_10/Add/y", "op": "Const", "attr": {"value": {"tensor": {"dtype": "DT_FLOAT", "tensorShape": {"dim": [{"size": "16"}]}}}, "dtype": {"type": "DT_FLOAT"}}}, {"name": "model_52/tf.nn.convolution_9/convolution/filter", "op": "Const", "attr": {"value": {"tensor": {"dtype": "DT_FLOAT", "tensorShape": {"dim": [{"size": "3"}, {"size": "3"}, {"size": "16"}, {"size": "32"}]}}}, "dtype": {"type": "DT_FLOAT"}}}, {"name": "model_52/tf.math.add_11/Add/y", "op": "Const", "attr": {"value": {"tensor": {"dtype": "DT_FLOAT", "tensorShape": {"dim": [{"size": "32"}]}}}, "dtype": {"type": "DT_FLOAT"}}}, {"name": "model_52/tf.concat_1/concat/axis", "op": "Const", "attr": {"value": {"tensor": {"dtype": "DT_INT32", "tensorShape": {}}}, "dtype": {"type": "DT_INT32"}}}, {"name": "model_52/tf.nn.convolution_10/convolution/filter", "op": "Const", "attr": {"value": {"tensor": {"dtype": "DT_FLOAT", "tensorShape": {"dim": [{"size": "1"}, {"size": "1"}, {"size": "96"}, {"size": "128"}]}}}, "dtype": {"type": "DT_FLOAT"}}}, {"name": "model_52/tf.math.add_14/Add/y", "op": "Const", "attr": {"value": {"tensor": {"dtype": "DT_FLOAT", "tensorShape": {"dim": [{"size": "128"}]}}}, "dtype": {"type": "DT_FLOAT"}}}, {"name": "model_52/tf.compat.v1.pad_3/Pad/paddings", "op": "Const", "attr": {"value": {"tensor": {"dtype": "DT_INT32", "tensorShape": {"dim": [{"size": "4"}, {"size": "2"}]}}}, "dtype": {"type": "DT_INT32"}}}, {"name": "model_52/tf.nn.convolution_11/convolution/filter", "op": "Const", "attr": {"value": {"tensor": {"dtype": "DT_FLOAT", "tensorShape": {"dim": [{"size": "3"}, {"size": "3"}, {"size": "128"}, {"size": "128"}]}}}, "dtype": {"type": "DT_FLOAT"}}}, {"name": "model_52/tf.math.add_15/Add/y", "op": "Const", "attr": {"value": {"tensor": {"dtype": "DT_FLOAT", "tensorShape": {"dim": [{"size": "128"}]}}}, "dtype": {"type": "DT_FLOAT"}}}, {"name": "model_52/tf.nn.convolution_12/convolution/filter", "op": "Const", "attr": {"value": {"tensor": {"dtype": "DT_FLOAT", "tensorShape": {"dim": [{"size": "1"}, {"size": "1"}, {"size": "128"}, {"size": "128"}]}}}, "dtype": {"type": "DT_FLOAT"}}}, {"name": "model_52/tf.math.add_16/Add/y", "op": "Const", "attr": {"value": {"tensor": {"dtype": "DT_FLOAT", "tensorShape": {"dim": [{"size": "128"}]}}}, "dtype": {"type": "DT_FLOAT"}}}, {"name": "model_52/tf.strided_slice_5/ones_like/tensor", "op": "Const", "attr": {"value": {"tensor": {"dtype": "DT_INT64", "tensorShape": {"dim": [{"size": "4"}]}}}, "dtype": {"type": "DT_INT64"}}}, {"name": "model_52/tf.strided_slice_5/StridedSlice/end", "op": "Const", "attr": {"value": {"tensor": {"dtype": "DT_INT64", "tensorShape": {"dim": [{"size": "4"}]}}}, "dtype": {"type": "DT_INT64"}}}, {"name": "model_52/tf.strided_slice_5/ones_like", "op": "Const", "attr": {"value": {"tensor": {"dtype": "DT_INT64", "tensorShape": {"dim": [{"size": "4"}]}}}, "dtype": {"type": "DT_INT64"}}}, {"name": "model_52/tf.nn.convolution_14/convolution/filter", "op": "Const", "attr": {"value": {"tensor": {"dtype": "DT_FLOAT", "tensorShape": {"dim": [{"size": "1"}, {"size": "1"}, {"size": "64"}, {"size": "32"}]}}}, "dtype": {"type": "DT_FLOAT"}}}, {"name": "model_52/tf.math.add_18/Add/y", "op": "Const", "attr": {"value": {"tensor": {"dtype": "DT_FLOAT", "tensorShape": {"dim": [{"size": "32"}]}}}, "dtype": {"type": "DT_FLOAT"}}}, {"name": "model_52/tf.concat_2/concat/axis", "op": "Const", "attr": {"value": {"tensor": {"dtype": "DT_INT32", "tensorShape": {}}}, "dtype": {"type": "DT_INT32"}}}, {"name": "model_52/tf.nn.convolution_19/convolution/filter", "op": "Const", "attr": {"value": {"tensor": {"dtype": "DT_FLOAT", "tensorShape": {"dim": [{"size": "1"}, {"size": "1"}, {"size": "64"}, {"size": "64"}]}}}, "dtype": {"type": "DT_FLOAT"}}}, {"name": "model_52/tf.math.add_27/Add/y", "op": "Const", "attr": {"value": {"tensor": {"dtype": "DT_FLOAT", "tensorShape": {"dim": [{"size": "64"}]}}}, "dtype": {"type": "DT_FLOAT"}}}, {"name": "model_52/tf.concat_3/concat/axis", "op": "Const", "attr": {"value": {"tensor": {"dtype": "DT_INT32", "tensorShape": {}}}, "dtype": {"type": "DT_INT32"}}}, {"name": "model_52/tf.nn.convolution_20/convolution/filter", "op": "Const", "attr": {"value": {"tensor": {"dtype": "DT_FLOAT", "tensorShape": {"dim": [{"size": "1"}, {"size": "1"}, {"size": "192"}, {"size": "128"}]}}}, "dtype": {"type": "DT_FLOAT"}}}, {"name": "model_52/tf.math.add_28/Add/y", "op": "Const", "attr": {"value": {"tensor": {"dtype": "DT_FLOAT", "tensorShape": {"dim": [{"size": "128"}]}}}, "dtype": {"type": "DT_FLOAT"}}}, {"name": "model_52/tf.compat.v1.pad_4/Pad/paddings", "op": "Const", "attr": {"value": {"tensor": {"dtype": "DT_INT32", "tensorShape": {"dim": [{"size": "4"}, {"size": "2"}]}}}, "dtype": {"type": "DT_INT32"}}}, {"name": "model_52/tf.nn.convolution_21/convolution/filter", "op": "Const", "attr": {"value": {"tensor": {"dtype": "DT_FLOAT", "tensorShape": {"dim": [{"size": "3"}, {"size": "3"}, {"size": "128"}, {"size": "256"}]}}}, "dtype": {"type": "DT_FLOAT"}}}, {"name": "model_52/tf.math.add_29/Add/y", "op": "Const", "attr": {"value": {"tensor": {"dtype": "DT_FLOAT", "tensorShape": {"dim": [{"size": "256"}]}}}, "dtype": {"type": "DT_FLOAT"}}}, {"name": "model_52/tf.nn.convolution_22/convolution/filter", "op": "Const", "attr": {"value": {"tensor": {"dtype": "DT_FLOAT", "tensorShape": {"dim": [{"size": "1"}, {"size": "1"}, {"size": "256"}, {"size": "256"}]}}}, "dtype": {"type": "DT_FLOAT"}}}, {"name": "model_52/tf.math.add_30/Add/y", "op": "Const", "attr": {"value": {"tensor": {"dtype": "DT_FLOAT", "tensorShape": {"dim": [{"size": "256"}]}}}, "dtype": {"type": "DT_FLOAT"}}}, {"name": "model_52/tf.strided_slice_7/ones_like/tensor", "op": "Const", "attr": {"value": {"tensor": {"dtype": "DT_INT64", "tensorShape": {"dim": [{"size": "4"}]}}}, "dtype": {"type": "DT_INT64"}}}, {"name": "model_52/tf.strided_slice_7/StridedSlice/end", "op": "Const", "attr": {"value": {"tensor": {"dtype": "DT_INT64", "tensorShape": {"dim": [{"size": "4"}]}}}, "dtype": {"type": "DT_INT64"}}}, {"name": "model_52/tf.strided_slice_7/ones_like", "op": "Const", "attr": {"value": {"tensor": {"dtype": "DT_INT64", "tensorShape": {"dim": [{"size": "4"}]}}}, "dtype": {"type": "DT_INT64"}}}, {"name": "model_52/tf.nn.convolution_24/convolution/filter", "op": "Const", "attr": {"value": {"tensor": {"dtype": "DT_FLOAT", "tensorShape": {"dim": [{"size": "1"}, {"size": "1"}, {"size": "128"}, {"size": "64"}]}}}, "dtype": {"type": "DT_FLOAT"}}}, {"name": "model_52/tf.math.add_32/Add/y", "op": "Const", "attr": {"value": {"tensor": {"dtype": "DT_FLOAT", "tensorShape": {"dim": [{"size": "64"}]}}}, "dtype": {"type": "DT_FLOAT"}}}, {"name": "model_52/tf.concat_4/concat/axis", "op": "Const", "attr": {"value": {"tensor": {"dtype": "DT_INT32", "tensorShape": {}}}, "dtype": {"type": "DT_INT32"}}}, {"name": "model_52/tf.nn.convolution_29/convolution/filter", "op": "Const", "attr": {"value": {"tensor": {"dtype": "DT_FLOAT", "tensorShape": {"dim": [{"size": "1"}, {"size": "1"}, {"size": "128"}, {"size": "128"}]}}}, "dtype": {"type": "DT_FLOAT"}}}, {"name": "model_52/tf.math.add_41/Add/y", "op": "Const", "attr": {"value": {"tensor": {"dtype": "DT_FLOAT", "tensorShape": {"dim": [{"size": "128"}]}}}, "dtype": {"type": "DT_FLOAT"}}}, {"name": "model_52/tf.concat_5/concat/axis", "op": "Const", "attr": {"value": {"tensor": {"dtype": "DT_INT32", "tensorShape": {}}}, "dtype": {"type": "DT_INT32"}}}, {"name": "model_52/tf.nn.convolution_30/convolution/filter", "op": "Const", "attr": {"value": {"tensor": {"dtype": "DT_FLOAT", "tensorShape": {"dim": [{"size": "1"}, {"size": "1"}, {"size": "384"}, {"size": "256"}]}}}, "dtype": {"type": "DT_FLOAT"}}}, {"name": "model_52/tf.math.add_42/Add/y", "op": "Const", "attr": {"value": {"tensor": {"dtype": "DT_FLOAT", "tensorShape": {"dim": [{"size": "256"}]}}}, "dtype": {"type": "DT_FLOAT"}}}, {"name": "model_52/tf.nn.convolution_31/convolution/filter", "op": "Const", "attr": {"value": {"tensor": {"dtype": "DT_FLOAT", "tensorShape": {"dim": [{"size": "1"}, {"size": "1"}, {"size": "256"}, {"size": "256"}]}}}, "dtype": {"type": "DT_FLOAT"}}}, {"name": "model_52/tf.math.add_43/Add/y", "op": "Const", "attr": {"value": {"tensor": {"dtype": "DT_FLOAT", "tensorShape": {"dim": [{"size": "256"}]}}}, "dtype": {"type": "DT_FLOAT"}}}, {"name": "model_52/tf.strided_slice_9/StridedSlice/begin", "op": "Const", "attr": {"value": {"tensor": {"dtype": "DT_INT32", "tensorShape": {"dim": [{"size": "4"}]}}}, "dtype": {"type": "DT_INT32"}}}, {"name": "model_52/tf.strided_slice_9/StridedSlice/end", "op": "Const", "attr": {"value": {"tensor": {"dtype": "DT_INT32", "tensorShape": {"dim": [{"size": "4"}]}}}, "dtype": {"type": "DT_INT32"}}}, {"name": "model_52/tf.strided_slice_9/ones_like", "op": "Const", "attr": {"value": {"tensor": {"dtype": "DT_INT32", "tensorShape": {"dim": [{"size": "4"}]}}}, "dtype": {"type": "DT_INT32"}}}, {"name": "model_52/tf.nn.convolution_32/convolution/filter", "op": "Const", "attr": {"value": {"tensor": {"dtype": "DT_FLOAT", "tensorShape": {"dim": [{"size": "1"}, {"size": "1"}, {"size": "128"}, {"size": "256"}]}}}, "dtype": {"type": "DT_FLOAT"}}}, {"name": "model_52/tf.math.add_44/Add/y", "op": "Const", "attr": {"value": {"tensor": {"dtype": "DT_FLOAT", "tensorShape": {"dim": [{"size": "256"}]}}}, "dtype": {"type": "DT_FLOAT"}}}, {"name": "model_52/tf.compat.v1.transpose_40/transpose/perm", "op": "Const", "attr": {"value": {"tensor": {"dtype": "DT_INT32", "tensorShape": {"dim": [{"size": "4"}]}}}, "dtype": {"type": "DT_INT32"}}}, {"name": "model_52/tf.reshape_2/Reshape/shape", "op": "Const", "attr": {"value": {"tensor": {"dtype": "DT_INT32", "tensorShape": {"dim": [{"size": "4"}]}}}, "dtype": {"type": "DT_INT32"}}}, {"name": "model_52/tf.strided_slice_12/StridedSlice/begin", "op": "Const", "attr": {"value": {"tensor": {"dtype": "DT_INT32", "tensorShape": {"dim": [{"size": "4"}]}}}, "dtype": {"type": "DT_INT32"}}}, {"name": "model_52/tf.strided_slice_12/StridedSlice/end", "op": "Const", "attr": {"value": {"tensor": {"dtype": "DT_INT32", "tensorShape": {"dim": [{"size": "4"}]}}}, "dtype": {"type": "DT_INT32"}}}, {"name": "model_52/tf.strided_slice_12/ones_like", "op": "Const", "attr": {"value": {"tensor": {"dtype": "DT_INT32", "tensorShape": {"dim": [{"size": "4"}]}}}, "dtype": {"type": "DT_INT32"}}}, {"name": "model_52/tf.reshape_5/Reshape/shape", "op": "Const", "attr": {"value": {"tensor": {"dtype": "DT_INT32", "tensorShape": {"dim": [{"size": "4"}]}}}, "dtype": {"type": "DT_INT32"}}}, {"name": "model_52/tf.compat.v1.transpose_56/transpose/perm", "op": "Const", "attr": {"value": {"tensor": {"dtype": "DT_INT32", "tensorShape": {"dim": [{"size": "4"}]}}}, "dtype": {"type": "DT_INT32"}}}, {"name": "model_52/tf.nn.convolution_160/convolution/filter", "op": "Const", "attr": {"value": {"tensor": {"dtype": "DT_FLOAT", "tensorShape": {"dim": [{"size": "3"}, {"size": "3"}, {"size": "1"}, {"size": "1"}]}}}, "dtype": {"type": "DT_FLOAT"}}}, {"name": "model_52/tf.concat_6/concat/axis", "op": "Const", "attr": {"value": {"tensor": {"dtype": "DT_INT32", "tensorShape": {}}}, "dtype": {"type": "DT_INT32"}}}, {"name": "model_52/tf.nn.convolution_161/convolution/filter", "op": "Const", "attr": {"value": {"tensor": {"dtype": "DT_FLOAT", "tensorShape": {"dim": [{"size": "1"}, {"size": "1"}, {"size": "128"}, {"size": "128"}]}}}, "dtype": {"type": "DT_FLOAT"}}}, {"name": "model_52/tf.math.add_48/Add/y", "op": "Const", "attr": {"value": {"tensor": {"dtype": "DT_FLOAT", "tensorShape": {"dim": [{"size": "128"}]}}}, "dtype": {"type": "DT_FLOAT"}}}, {"name": "model_52/tf.nn.convolution_162/convolution/filter", "op": "Const", "attr": {"value": {"tensor": {"dtype": "DT_FLOAT", "tensorShape": {"dim": [{"size": "1"}, {"size": "1"}, {"size": "128"}, {"size": "256"}]}}}, "dtype": {"type": "DT_FLOAT"}}}, {"name": "model_52/tf.math.add_51/Add/y", "op": "Const", "attr": {"value": {"tensor": {"dtype": "DT_FLOAT", "tensorShape": {"dim": [{"size": "256"}]}}}, "dtype": {"type": "DT_FLOAT"}}}, {"name": "model_52/tf.nn.convolution_163/convolution/filter", "op": "Const", "attr": {"value": {"tensor": {"dtype": "DT_FLOAT", "tensorShape": {"dim": [{"size": "1"}, {"size": "1"}, {"size": "256"}, {"size": "128"}]}}}, "dtype": {"type": "DT_FLOAT"}}}, {"name": "model_52/tf.concat_7/concat/axis", "op": "Const", "attr": {"value": {"tensor": {"dtype": "DT_INT32", "tensorShape": {}}}, "dtype": {"type": "DT_INT32"}}}, {"name": "model_52/tf.nn.convolution_164/convolution/filter", "op": "Const", "attr": {"value": {"tensor": {"dtype": "DT_FLOAT", "tensorShape": {"dim": [{"size": "1"}, {"size": "1"}, {"size": "256"}, {"size": "256"}]}}}, "dtype": {"type": "DT_FLOAT"}}}, {"name": "model_52/tf.math.add_55/Add/y", "op": "Const", "attr": {"value": {"tensor": {"dtype": "DT_FLOAT", "tensorShape": {"dim": [{"size": "256"}]}}}, "dtype": {"type": "DT_FLOAT"}}}, {"name": "model_52/tf.nn.convolution_165/convolution/filter", "op": "Const", "attr": {"value": {"tensor": {"dtype": "DT_FLOAT", "tensorShape": {"dim": [{"size": "1"}, {"size": "1"}, {"size": "256"}, {"size": "1280"}]}}}, "dtype": {"type": "DT_FLOAT"}}}, {"name": "model_52/tf.math.add_56/Add/y", "op": "Const", "attr": {"value": {"tensor": {"dtype": "DT_FLOAT", "tensorShape": {"dim": [{"size": "1280"}]}}}, "dtype": {"type": "DT_FLOAT"}}}, {"name": "model_52/tf.math.reduce_mean/Mean/reduction_indices", "op": "Const", "attr": {"value": {"tensor": {"dtype": "DT_INT32", "tensorShape": {"dim": [{"size": "2"}]}}}, "dtype": {"type": "DT_INT32"}}}, {"name": "model_52/tf.compat.v1.transpose_111/transpose/perm", "op": "Const", "attr": {"value": {"tensor": {"dtype": "DT_INT32", "tensorShape": {"dim": [{"size": "4"}]}}}, "dtype": {"type": "DT_INT32"}}}, {"name": "model_52/tf.reshape_32/Reshape/shape", "op": "Const", "attr": {"value": {"tensor": {"dtype": "DT_INT32", "tensorShape": {"dim": [{"size": "2"}]}}}, "dtype": {"type": "DT_INT32"}}}, {"name": "model_52/tf.linalg.matmul_20/MatMul/b", "op": "Const", "attr": {"value": {"tensor": {"dtype": "DT_FLOAT", "tensorShape": {"dim": [{"size": "1280"}, {"size": "143"}]}}}, "dtype": {"type": "DT_FLOAT"}}}, {"name": "model_52/tf.__operators__.add/AddV2/y", "op": "Const", "attr": {"value": {"tensor": {"dtype": "DT_FLOAT", "tensorShape": {"dim": [{"size": "143"}]}}}, "dtype": {"type": "DT_FLOAT"}}}, {"name": "x", "op": "Placeholder", "attr": {"shape": {"shape": {"dim": [{"size": "1"}, {"size": "640"}, {"size": "640"}, {"size": "3"}]}}, "dtype": {"type": "DT_FLOAT"}}}, {"name": "model_52/tf.compat.v1.pad/Pad", "op": "Pad", "input": ["x", "model_52/tf.compat.v1.pad/Pad/paddings"], "attr": {"Tpaddings": {"type": "DT_INT32"}, "T": {"type": "DT_FLOAT"}}}, {"name": "model_52/tf.math.add/Add", "op": "_FusedConv2D", "input": ["model_52/tf.compat.v1.pad/Pad", "model_52/tf.nn.convolution/convolution/filter", "model_52/tf.math.add/Add/y"], "device": "/device:CPU:0", "attr": {"num_host_args": {"i": "0"}, "data_format": {"s": "TkhXQw=="}, "filter_format": {"s": "SFdJTw=="}, "fused_ops": {"list": {"s": ["Qmlhc0FkZA=="]}}, "num_args": {"i": "1"}, "strides": {"list": {"i": ["1", "2", "2", "1"]}}, "TArgs": {"list": {"type": ["DT_FLOAT"]}}, "padding": {"s": "VkFMSUQ="}, "use_cudnn_on_gpu": {"b": true}, "leakyrelu_alpha": {"f": 0.2}, "epsilon": {"f": 0.0}, "T": {"type": "DT_FLOAT"}, "explicit_paddings": {"list": {}}, "dilations": {"list": {"i": ["1", "1", "1", "1"]}}}}, {"name": "model_52/tf.math.sigmoid/Sigmoid", "op": "Sigmoid", "input": ["model_52/tf.math.add/Add"], "attr": {"T": {"type": "DT_FLOAT"}}}, {"name": "model_52/tf.math.multiply_3/Mul", "op": "Mul", "input": ["model_52/tf.math.add/Add", "model_52/tf.math.sigmoid/Sigmoid"], "attr": {"T": {"type": "DT_FLOAT"}}}, {"name": "model_52/tf.compat.v1.pad_1/Pad", "op": "Pad", "input": ["model_52/tf.math.multiply_3/Mul", "model_52/tf.compat.v1.pad_1/Pad/paddings"], "attr": {"Tpaddings": {"type": "DT_INT32"}, "T": {"type": "DT_FLOAT"}}}, {"name": "model_52/tf.math.add_1/Add", "op": "_FusedConv2D", "input": ["model_52/tf.compat.v1.pad_1/Pad", "model_52/tf.nn.convolution_1/convolution/filter", "model_52/tf.math.add_1/Add/y"], "device": "/device:CPU:0", "attr": {"num_host_args": {"i": "0"}, "data_format": {"s": "TkhXQw=="}, "filter_format": {"s": "SFdJTw=="}, "fused_ops": {"list": {"s": ["Qmlhc0FkZA=="]}}, "num_args": {"i": "1"}, "strides": {"list": {"i": ["1", "2", "2", "1"]}}, "TArgs": {"list": {"type": ["DT_FLOAT"]}}, "padding": {"s": "VkFMSUQ="}, "use_cudnn_on_gpu": {"b": true}, "leakyrelu_alpha": {"f": 0.2}, "epsilon": {"f": 0.0}, "T": {"type": "DT_FLOAT"}, "explicit_paddings": {"list": {}}, "dilations": {"list": {"i": ["1", "1", "1", "1"]}}}}, {"name": "model_52/tf.math.sigmoid_1/Sigmoid", "op": "Sigmoid", "input": ["model_52/tf.math.add_1/Add"], "attr": {"T": {"type": "DT_FLOAT"}}}, {"name": "model_52/tf.math.multiply_7/Mul", "op": "Mul", "input": ["model_52/tf.math.add_1/Add", "model_52/tf.math.sigmoid_1/Sigmoid"], "attr": {"T": {"type": "DT_FLOAT"}}}, {"name": "model_52/tf.math.add_2/Add", "op": "_FusedConv2D", "input": ["model_52/tf.math.multiply_7/Mul", "model_52/tf.nn.convolution_2/convolution/filter", "model_52/tf.math.add_2/Add/y"], "device": "/device:CPU:0", "attr": {"num_host_args": {"i": "0"}, "data_format": {"s": "TkhXQw=="}, "filter_format": {"s": "SFdJTw=="}, "strides": {"list": {"i": ["1", "1", "1", "1"]}}, "num_args": {"i": "1"}, "fused_ops": {"list": {"s": ["Qmlhc0FkZA=="]}}, "TArgs": {"list": {"type": ["DT_FLOAT"]}}, "padding": {"s": "U0FNRQ=="}, "use_cudnn_on_gpu": {"b": true}, "leakyrelu_alpha": {"f": 0.2}, "epsilon": {"f": 0.0}, "T": {"type": "DT_FLOAT"}, "explicit_paddings": {"list": {}}, "dilations": {"list": {"i": ["1", "1", "1", "1"]}}}}, {"name": "model_52/tf.math.sigmoid_2/Sigmoid", "op": "Sigmoid", "input": ["model_52/tf.math.add_2/Add"], "attr": {"T": {"type": "DT_FLOAT"}}}, {"name": "model_52/tf.math.multiply_11/Mul", "op": "Mul", "input": ["model_52/tf.math.add_2/Add", "model_52/tf.math.sigmoid_2/Sigmoid"], "attr": {"T": {"type": "DT_FLOAT"}}}, {"name": "model_52/tf.strided_slice/StridedSlice", "op": "StridedSlice", "input": ["model_52/tf.math.multiply_11/Mul", "model_52/tf.strided_slice/ones_like/tensor", "model_52/tf.strided_slice/StridedSlice/end", "model_52/tf.strided_slice/ones_like"], "attr": {"shrink_axis_mask": {"i": "0"}, "Index": {"type": "DT_INT64"}, "new_axis_mask": {"i": "0"}, "begin_mask": {"i": "15"}, "end_mask": {"i": "7"}, "T": {"type": "DT_FLOAT"}, "ellipsis_mask": {"i": "0"}}}, {"name": "model_52/tf.strided_slice_1/StridedSlice", "op": "StridedSlice", "input": ["model_52/tf.math.multiply_11/Mul", "model_52/tf.strided_slice_1/ones_like/tensor", "model_52/tf.strided_slice_1/StridedSlice/end", "model_52/tf.strided_slice_1/ones_like"], "attr": {"shrink_axis_mask": {"i": "0"}, "new_axis_mask": {"i": "0"}, "Index": {"type": "DT_INT64"}, "begin_mask": {"i": "7"}, "T": {"type": "DT_FLOAT"}, "end_mask": {"i": "7"}, "ellipsis_mask": {"i": "0"}}}, {"name": "model_52/tf.math.add_3/Add", "op": "_FusedConv2D", "input": ["model_52/tf.strided_slice_1/StridedSlice", "model_52/tf.nn.convolution_3/convolution/filter", "model_52/tf.math.add_3/Add/y"], "device": "/device:CPU:0", "attr": {"num_host_args": {"i": "0"}, "data_format": {"s": "TkhXQw=="}, "filter_format": {"s": "SFdJTw=="}, "strides": {"list": {"i": ["1", "1", "1", "1"]}}, "num_args": {"i": "1"}, "fused_ops": {"list": {"s": ["Qmlhc0FkZA=="]}}, "TArgs": {"list": {"type": ["DT_FLOAT"]}}, "padding": {"s": "U0FNRQ=="}, "use_cudnn_on_gpu": {"b": true}, "leakyrelu_alpha": {"f": 0.2}, "epsilon": {"f": 0.0}, "T": {"type": "DT_FLOAT"}, "explicit_paddings": {"list": {}}, "dilations": {"list": {"i": ["1", "1", "1", "1"]}}}}, {"name": "model_52/tf.math.sigmoid_3/Sigmoid", "op": "Sigmoid", "input": ["model_52/tf.math.add_3/Add"], "attr": {"T": {"type": "DT_FLOAT"}}}, {"name": "model_52/tf.math.multiply_15/Mul", "op": "Mul", "input": ["model_52/tf.math.add_3/Add", "model_52/tf.math.sigmoid_3/Sigmoid"], "attr": {"T": {"type": "DT_FLOAT"}}}, {"name": "model_52/tf.math.add_4/Add", "op": "_FusedConv2D", "input": ["model_52/tf.math.multiply_15/Mul", "model_52/tf.nn.convolution_4/convolution/filter", "model_52/tf.math.add_4/Add/y"], "device": "/device:CPU:0", "attr": {"num_host_args": {"i": "0"}, "data_format": {"s": "TkhXQw=="}, "filter_format": {"s": "SFdJTw=="}, "fused_ops": {"list": {"s": ["Qmlhc0FkZA=="]}}, "num_args": {"i": "1"}, "strides": {"list": {"i": ["1", "1", "1", "1"]}}, "TArgs": {"list": {"type": ["DT_FLOAT"]}}, "padding": {"s": "U0FNRQ=="}, "use_cudnn_on_gpu": {"b": true}, "leakyrelu_alpha": {"f": 0.2}, "epsilon": {"f": 0.0}, "T": {"type": "DT_FLOAT"}, "explicit_paddings": {"list": {}}, "dilations": {"list": {"i": ["1", "1", "1", "1"]}}}}, {"name": "model_52/tf.math.sigmoid_4/Sigmoid", "op": "Sigmoid", "input": ["model_52/tf.math.add_4/Add"], "attr": {"T": {"type": "DT_FLOAT"}}}, {"name": "model_52/tf.math.multiply_19/Mul", "op": "Mul", "input": ["model_52/tf.math.add_4/Add", "model_52/tf.math.sigmoid_4/Sigmoid"], "attr": {"T": {"type": "DT_FLOAT"}}}, {"name": "model_52/tf.math.add_6/Add", "op": "AddV2", "input": ["model_52/tf.strided_slice_1/StridedSlice", "model_52/tf.math.multiply_19/Mul"], "attr": {"T": {"type": "DT_FLOAT"}}}, {"name": "model_52/tf.concat/concat", "op": "ConcatV2", "input": ["model_52/tf.strided_slice/StridedSlice", "model_52/tf.strided_slice_1/StridedSlice", "model_52/tf.math.add_6/Add", "model_52/tf.concat/concat/axis"], "attr": {"N": {"i": "3"}, "T": {"type": "DT_FLOAT"}, "Tidx": {"type": "DT_INT32"}}}, {"name": "model_52/tf.math.add_7/Add", "op": "_FusedConv2D", "input": ["model_52/tf.concat/concat", "model_52/tf.nn.convolution_5/convolution/filter", "model_52/tf.math.add_7/Add/y"], "device": "/device:CPU:0", "attr": {"num_host_args": {"i": "0"}, "data_format": {"s": "TkhXQw=="}, "filter_format": {"s": "SFdJTw=="}, "strides": {"list": {"i": ["1", "1", "1", "1"]}}, "num_args": {"i": "1"}, "fused_ops": {"list": {"s": ["Qmlhc0FkZA=="]}}, "TArgs": {"list": {"type": ["DT_FLOAT"]}}, "padding": {"s": "U0FNRQ=="}, "use_cudnn_on_gpu": {"b": true}, "leakyrelu_alpha": {"f": 0.2}, "epsilon": {"f": 0.0}, "T": {"type": "DT_FLOAT"}, "explicit_paddings": {"list": {}}, "dilations": {"list": {"i": ["1", "1", "1", "1"]}}}}, {"name": "model_52/tf.math.sigmoid_5/Sigmoid", "op": "Sigmoid", "input": ["model_52/tf.math.add_7/Add"], "attr": {"T": {"type": "DT_FLOAT"}}}, {"name": "model_52/tf.math.multiply_25/Mul", "op": "Mul", "input": ["model_52/tf.math.add_7/Add", "model_52/tf.math.sigmoid_5/Sigmoid"], "attr": {"T": {"type": "DT_FLOAT"}}}, {"name": "model_52/tf.compat.v1.pad_2/Pad", "op": "Pad", "input": ["model_52/tf.math.multiply_25/Mul", "model_52/tf.compat.v1.pad_2/Pad/paddings"], "attr": {"Tpaddings": {"type": "DT_INT32"}, "T": {"type": "DT_FLOAT"}}}, {"name": "model_52/tf.math.add_8/Add", "op": "_FusedConv2D", "input": ["model_52/tf.compat.v1.pad_2/Pad", "model_52/tf.nn.convolution_6/convolution/filter", "model_52/tf.math.add_8/Add/y"], "device": "/device:CPU:0", "attr": {"num_host_args": {"i": "0"}, "data_format": {"s": "TkhXQw=="}, "filter_format": {"s": "SFdJTw=="}, "fused_ops": {"list": {"s": ["Qmlhc0FkZA=="]}}, "num_args": {"i": "1"}, "strides": {"list": {"i": ["1", "2", "2", "1"]}}, "TArgs": {"list": {"type": ["DT_FLOAT"]}}, "padding": {"s": "VkFMSUQ="}, "use_cudnn_on_gpu": {"b": true}, "leakyrelu_alpha": {"f": 0.2}, "epsilon": {"f": 0.0}, "T": {"type": "DT_FLOAT"}, "explicit_paddings": {"list": {}}, "dilations": {"list": {"i": ["1", "1", "1", "1"]}}}}, {"name": "model_52/tf.math.sigmoid_6/Sigmoid", "op": "Sigmoid", "input": ["model_52/tf.math.add_8/Add"], "attr": {"T": {"type": "DT_FLOAT"}}}, {"name": "model_52/tf.math.multiply_29/Mul", "op": "Mul", "input": ["model_52/tf.math.add_8/Add", "model_52/tf.math.sigmoid_6/Sigmoid"], "attr": {"T": {"type": "DT_FLOAT"}}}, {"name": "model_52/tf.math.add_9/Add", "op": "_FusedConv2D", "input": ["model_52/tf.math.multiply_29/Mul", "model_52/tf.nn.convolution_7/convolution/filter", "model_52/tf.math.add_9/Add/y"], "device": "/device:CPU:0", "attr": {"num_host_args": {"i": "0"}, "data_format": {"s": "TkhXQw=="}, "filter_format": {"s": "SFdJTw=="}, "fused_ops": {"list": {"s": ["Qmlhc0FkZA=="]}}, "num_args": {"i": "1"}, "strides": {"list": {"i": ["1", "1", "1", "1"]}}, "TArgs": {"list": {"type": ["DT_FLOAT"]}}, "padding": {"s": "U0FNRQ=="}, "use_cudnn_on_gpu": {"b": true}, "leakyrelu_alpha": {"f": 0.2}, "epsilon": {"f": 0.0}, "T": {"type": "DT_FLOAT"}, "explicit_paddings": {"list": {}}, "dilations": {"list": {"i": ["1", "1", "1", "1"]}}}}, {"name": "model_52/tf.math.sigmoid_7/Sigmoid", "op": "Sigmoid", "input": ["model_52/tf.math.add_9/Add"], "attr": {"T": {"type": "DT_FLOAT"}}}, {"name": "model_52/tf.math.multiply_33/Mul", "op": "Mul", "input": ["model_52/tf.math.add_9/Add", "model_52/tf.math.sigmoid_7/Sigmoid"], "attr": {"T": {"type": "DT_FLOAT"}}}, {"name": "model_52/tf.strided_slice_2/StridedSlice", "op": "StridedSlice", "input": ["model_52/tf.math.multiply_33/Mul", "model_52/tf.strided_slice_2/ones_like/tensor", "model_52/tf.strided_slice_2/StridedSlice/end", "model_52/tf.strided_slice_2/ones_like"], "attr": {"shrink_axis_mask": {"i": "0"}, "Index": {"type": "DT_INT64"}, "new_axis_mask": {"i": "0"}, "begin_mask": {"i": "15"}, "T": {"type": "DT_FLOAT"}, "end_mask": {"i": "7"}, "ellipsis_mask": {"i": "0"}}}, {"name": "model_52/tf.strided_slice_3/StridedSlice", "op": "StridedSlice", "input": ["model_52/tf.math.multiply_33/Mul", "model_52/tf.strided_slice_3/ones_like/tensor", "model_52/tf.strided_slice_3/StridedSlice/end", "model_52/tf.strided_slice_3/ones_like"], "attr": {"shrink_axis_mask": {"i": "0"}, "new_axis_mask": {"i": "0"}, "Index": {"type": "DT_INT64"}, "begin_mask": {"i": "7"}, "end_mask": {"i": "7"}, "T": {"type": "DT_FLOAT"}, "ellipsis_mask": {"i": "0"}}}, {"name": "model_52/tf.math.add_10/Add", "op": "_FusedConv2D", "input": ["model_52/tf.strided_slice_3/StridedSlice", "model_52/tf.nn.convolution_8/convolution/filter", "model_52/tf.math.add_10/Add/y"], "device": "/device:CPU:0", "attr": {"num_host_args": {"i": "0"}, "data_format": {"s": "TkhXQw=="}, "filter_format": {"s": "SFdJTw=="}, "fused_ops": {"list": {"s": ["Qmlhc0FkZA=="]}}, "num_args": {"i": "1"}, "strides": {"list": {"i": ["1", "1", "1", "1"]}}, "TArgs": {"list": {"type": ["DT_FLOAT"]}}, "padding": {"s": "U0FNRQ=="}, "use_cudnn_on_gpu": {"b": true}, "leakyrelu_alpha": {"f": 0.2}, "epsilon": {"f": 0.0}, "T": {"type": "DT_FLOAT"}, "explicit_paddings": {"list": {}}, "dilations": {"list": {"i": ["1", "1", "1", "1"]}}}}, {"name": "model_52/tf.math.sigmoid_8/Sigmoid", "op": "Sigmoid", "input": ["model_52/tf.math.add_10/Add"], "attr": {"T": {"type": "DT_FLOAT"}}}, {"name": "model_52/tf.math.multiply_37/Mul", "op": "Mul", "input": ["model_52/tf.math.add_10/Add", "model_52/tf.math.sigmoid_8/Sigmoid"], "attr": {"T": {"type": "DT_FLOAT"}}}, {"name": "model_52/tf.math.add_11/Add", "op": "_FusedConv2D", "input": ["model_52/tf.math.multiply_37/Mul", "model_52/tf.nn.convolution_9/convolution/filter", "model_52/tf.math.add_11/Add/y"], "device": "/device:CPU:0", "attr": {"num_host_args": {"i": "0"}, "data_format": {"s": "TkhXQw=="}, "filter_format": {"s": "SFdJTw=="}, "strides": {"list": {"i": ["1", "1", "1", "1"]}}, "num_args": {"i": "1"}, "fused_ops": {"list": {"s": ["Qmlhc0FkZA=="]}}, "TArgs": {"list": {"type": ["DT_FLOAT"]}}, "padding": {"s": "U0FNRQ=="}, "use_cudnn_on_gpu": {"b": true}, "leakyrelu_alpha": {"f": 0.2}, "epsilon": {"f": 0.0}, "T": {"type": "DT_FLOAT"}, "explicit_paddings": {"list": {}}, "dilations": {"list": {"i": ["1", "1", "1", "1"]}}}}, {"name": "model_52/tf.math.sigmoid_9/Sigmoid", "op": "Sigmoid", "input": ["model_52/tf.math.add_11/Add"], "attr": {"T": {"type": "DT_FLOAT"}}}, {"name": "model_52/tf.math.multiply_41/Mul", "op": "Mul", "input": ["model_52/tf.math.add_11/Add", "model_52/tf.math.sigmoid_9/Sigmoid"], "attr": {"T": {"type": "DT_FLOAT"}}}, {"name": "model_52/tf.math.add_13/Add", "op": "AddV2", "input": ["model_52/tf.strided_slice_3/StridedSlice", "model_52/tf.math.multiply_41/Mul"], "attr": {"T": {"type": "DT_FLOAT"}}}, {"name": "model_52/tf.concat_1/concat", "op": "ConcatV2", "input": ["model_52/tf.strided_slice_2/StridedSlice", "model_52/tf.strided_slice_3/StridedSlice", "model_52/tf.math.add_13/Add", "model_52/tf.concat_1/concat/axis"], "attr": {"N": {"i": "3"}, "T": {"type": "DT_FLOAT"}, "Tidx": {"type": "DT_INT32"}}}, {"name": "model_52/tf.math.add_14/Add", "op": "_FusedConv2D", "input": ["model_52/tf.concat_1/concat", "model_52/tf.nn.convolution_10/convolution/filter", "model_52/tf.math.add_14/Add/y"], "device": "/device:CPU:0", "attr": {"num_host_args": {"i": "0"}, "data_format": {"s": "TkhXQw=="}, "filter_format": {"s": "SFdJTw=="}, "fused_ops": {"list": {"s": ["Qmlhc0FkZA=="]}}, "num_args": {"i": "1"}, "strides": {"list": {"i": ["1", "1", "1", "1"]}}, "TArgs": {"list": {"type": ["DT_FLOAT"]}}, "padding": {"s": "U0FNRQ=="}, "use_cudnn_on_gpu": {"b": true}, "leakyrelu_alpha": {"f": 0.2}, "epsilon": {"f": 0.0}, "T": {"type": "DT_FLOAT"}, "explicit_paddings": {"list": {}}, "dilations": {"list": {"i": ["1", "1", "1", "1"]}}}}, {"name": "model_52/tf.math.sigmoid_10/Sigmoid", "op": "Sigmoid", "input": ["model_52/tf.math.add_14/Add"], "attr": {"T": {"type": "DT_FLOAT"}}}, {"name": "model_52/tf.math.multiply_47/Mul", "op": "Mul", "input": ["model_52/tf.math.add_14/Add", "model_52/tf.math.sigmoid_10/Sigmoid"], "attr": {"T": {"type": "DT_FLOAT"}}}, {"name": "model_52/tf.compat.v1.pad_3/Pad", "op": "Pad", "input": ["model_52/tf.math.multiply_47/Mul", "model_52/tf.compat.v1.pad_3/Pad/paddings"], "attr": {"Tpaddings": {"type": "DT_INT32"}, "T": {"type": "DT_FLOAT"}}}, {"name": "model_52/tf.math.add_15/Add", "op": "_FusedConv2D", "input": ["model_52/tf.compat.v1.pad_3/Pad", "model_52/tf.nn.convolution_11/convolution/filter", "model_52/tf.math.add_15/Add/y"], "device": "/device:CPU:0", "attr": {"num_host_args": {"i": "0"}, "data_format": {"s": "TkhXQw=="}, "filter_format": {"s": "SFdJTw=="}, "strides": {"list": {"i": ["1", "2", "2", "1"]}}, "num_args": {"i": "1"}, "fused_ops": {"list": {"s": ["Qmlhc0FkZA=="]}}, "TArgs": {"list": {"type": ["DT_FLOAT"]}}, "padding": {"s": "VkFMSUQ="}, "use_cudnn_on_gpu": {"b": true}, "leakyrelu_alpha": {"f": 0.2}, "epsilon": {"f": 0.0}, "T": {"type": "DT_FLOAT"}, "explicit_paddings": {"list": {}}, "dilations": {"list": {"i": ["1", "1", "1", "1"]}}}}, {"name": "model_52/tf.math.sigmoid_11/Sigmoid", "op": "Sigmoid", "input": ["model_52/tf.math.add_15/Add"], "attr": {"T": {"type": "DT_FLOAT"}}}, {"name": "model_52/tf.math.multiply_51/Mul", "op": "Mul", "input": ["model_52/tf.math.add_15/Add", "model_52/tf.math.sigmoid_11/Sigmoid"], "attr": {"T": {"type": "DT_FLOAT"}}}, {"name": "model_52/tf.math.add_16/Add", "op": "_FusedConv2D", "input": ["model_52/tf.math.multiply_51/Mul", "model_52/tf.nn.convolution_12/convolution/filter", "model_52/tf.math.add_16/Add/y"], "device": "/device:CPU:0", "attr": {"num_host_args": {"i": "0"}, "data_format": {"s": "TkhXQw=="}, "filter_format": {"s": "SFdJTw=="}, "fused_ops": {"list": {"s": ["Qmlhc0FkZA=="]}}, "num_args": {"i": "1"}, "strides": {"list": {"i": ["1", "1", "1", "1"]}}, "TArgs": {"list": {"type": ["DT_FLOAT"]}}, "padding": {"s": "U0FNRQ=="}, "use_cudnn_on_gpu": {"b": true}, "leakyrelu_alpha": {"f": 0.2}, "epsilon": {"f": 0.0}, "T": {"type": "DT_FLOAT"}, "explicit_paddings": {"list": {}}, "dilations": {"list": {"i": ["1", "1", "1", "1"]}}}}, {"name": "model_52/tf.math.sigmoid_12/Sigmoid", "op": "Sigmoid", "input": ["model_52/tf.math.add_16/Add"], "attr": {"T": {"type": "DT_FLOAT"}}}, {"name": "model_52/tf.math.multiply_55/Mul", "op": "Mul", "input": ["model_52/tf.math.add_16/Add", "model_52/tf.math.sigmoid_12/Sigmoid"], "attr": {"T": {"type": "DT_FLOAT"}}}, {"name": "model_52/tf.strided_slice_4/StridedSlice", "op": "StridedSlice", "input": ["model_52/tf.math.multiply_55/Mul", "model_52/tf.strided_slice_4/ones_like/tensor", "model_52/tf.strided_slice_4/StridedSlice/end", "model_52/tf.strided_slice_4/ones_like"], "attr": {"shrink_axis_mask": {"i": "0"}, "new_axis_mask": {"i": "0"}, "Index": {"type": "DT_INT64"}, "begin_mask": {"i": "15"}, "T": {"type": "DT_FLOAT"}, "end_mask": {"i": "7"}, "ellipsis_mask": {"i": "0"}}}, {"name": "model_52/tf.strided_slice_5/StridedSlice", "op": "StridedSlice", "input": ["model_52/tf.math.multiply_55/Mul", "model_52/tf.strided_slice_5/ones_like/tensor", "model_52/tf.strided_slice_5/StridedSlice/end", "model_52/tf.strided_slice_5/ones_like"], "attr": {"shrink_axis_mask": {"i": "0"}, "new_axis_mask": {"i": "0"}, "Index": {"type": "DT_INT64"}, "begin_mask": {"i": "7"}, "T": {"type": "DT_FLOAT"}, "end_mask": {"i": "7"}, "ellipsis_mask": {"i": "0"}}}, {"name": "model_52/tf.math.add_17/Add", "op": "_FusedConv2D", "input": ["model_52/tf.strided_slice_5/StridedSlice", "model_52/tf.nn.convolution_13/convolution/filter", "model_52/tf.math.add_17/Add/y"], "device": "/device:CPU:0", "attr": {"num_host_args": {"i": "0"}, "data_format": {"s": "TkhXQw=="}, "filter_format": {"s": "SFdJTw=="}, "strides": {"list": {"i": ["1", "1", "1", "1"]}}, "num_args": {"i": "1"}, "fused_ops": {"list": {"s": ["Qmlhc0FkZA=="]}}, "TArgs": {"list": {"type": ["DT_FLOAT"]}}, "padding": {"s": "U0FNRQ=="}, "use_cudnn_on_gpu": {"b": true}, "leakyrelu_alpha": {"f": 0.2}, "epsilon": {"f": 0.0}, "T": {"type": "DT_FLOAT"}, "explicit_paddings": {"list": {}}, "dilations": {"list": {"i": ["1", "1", "1", "1"]}}}}, {"name": "model_52/tf.math.add_18/Add", "op": "_FusedConv2D", "input": ["model_52/tf.strided_slice_5/StridedSlice", "model_52/tf.nn.convolution_14/convolution/filter", "model_52/tf.math.add_18/Add/y"], "device": "/device:CPU:0", "attr": {"num_host_args": {"i": "0"}, "data_format": {"s": "TkhXQw=="}, "filter_format": {"s": "SFdJTw=="}, "strides": {"list": {"i": ["1", "1", "1", "1"]}}, "num_args": {"i": "1"}, "fused_ops": {"list": {"s": ["Qmlhc0FkZA=="]}}, "TArgs": {"list": {"type": ["DT_FLOAT"]}}, "padding": {"s": "U0FNRQ=="}, "use_cudnn_on_gpu": {"b": true}, "leakyrelu_alpha": {"f": 0.2}, "epsilon": {"f": 0.0}, "T": {"type": "DT_FLOAT"}, "explicit_paddings": {"list": {}}, "dilations": {"list": {"i": ["1", "1", "1", "1"]}}}}, {"name": "model_52/tf.math.sigmoid_13/Sigmoid", "op": "Sigmoid", "input": ["model_52/tf.math.add_17/Add"], "attr": {"T": {"type": "DT_FLOAT"}}}, {"name": "model_52/tf.math.sigmoid_14/Sigmoid", "op": "Sigmoid", "input": ["model_52/tf.math.add_18/Add"], "attr": {"T": {"type": "DT_FLOAT"}}}, {"name": "model_52/tf.math.multiply_59/Mul", "op": "Mul", "input": ["model_52/tf.math.add_17/Add", "model_52/tf.math.sigmoid_13/Sigmoid"], "attr": {"T": {"type": "DT_FLOAT"}}}, {"name": "model_52/tf.math.multiply_63/Mul", "op": "Mul", "input": ["model_52/tf.math.add_18/Add", "model_52/tf.math.sigmoid_14/Sigmoid"], "attr": {"T": {"type": "DT_FLOAT"}}}, {"name": "model_52/tf.math.add_19/Add", "op": "_FusedConv2D", "input": ["model_52/tf.math.multiply_59/Mul", "model_52/tf.nn.convolution_15/convolution/filter", "model_52/tf.math.add_19/Add/y"], "device": "/device:CPU:0", "attr": {"num_host_args": {"i": "0"}, "data_format": {"s": "TkhXQw=="}, "filter_format": {"s": "SFdJTw=="}, "strides": {"list": {"i": ["1", "1", "1", "1"]}}, "num_args": {"i": "1"}, "fused_ops": {"list": {"s": ["Qmlhc0FkZA=="]}}, "TArgs": {"list": {"type": ["DT_FLOAT"]}}, "padding": {"s": "U0FNRQ=="}, "use_cudnn_on_gpu": {"b": true}, "leakyrelu_alpha": {"f": 0.2}, "epsilon": {"f": 0.0}, "T": {"type": "DT_FLOAT"}, "explicit_paddings": {"list": {}}, "dilations": {"list": {"i": ["1", "1", "1", "1"]}}}}, {"name": "model_52/tf.math.sigmoid_15/Sigmoid", "op": "Sigmoid", "input": ["model_52/tf.math.add_19/Add"], "attr": {"T": {"type": "DT_FLOAT"}}}, {"name": "model_52/tf.math.multiply_67/Mul", "op": "Mul", "input": ["model_52/tf.math.add_19/Add", "model_52/tf.math.sigmoid_15/Sigmoid"], "attr": {"T": {"type": "DT_FLOAT"}}}, {"name": "model_52/tf.math.add_20/Add", "op": "_FusedConv2D", "input": ["model_52/tf.math.multiply_67/Mul", "model_52/tf.nn.convolution_16/convolution/filter", "model_52/tf.math.add_20/Add/y"], "device": "/device:CPU:0", "attr": {"num_host_args": {"i": "0"}, "data_format": {"s": "TkhXQw=="}, "filter_format": {"s": "SFdJTw=="}, "fused_ops": {"list": {"s": ["Qmlhc0FkZA=="]}}, "num_args": {"i": "1"}, "strides": {"list": {"i": ["1", "1", "1", "1"]}}, "TArgs": {"list": {"type": ["DT_FLOAT"]}}, "padding": {"s": "U0FNRQ=="}, "use_cudnn_on_gpu": {"b": true}, "leakyrelu_alpha": {"f": 0.2}, "epsilon": {"f": 0.0}, "T": {"type": "DT_FLOAT"}, "explicit_paddings": {"list": {}}, "dilations": {"list": {"i": ["1", "1", "1", "1"]}}}}, {"name": "model_52/tf.math.sigmoid_16/Sigmoid", "op": "Sigmoid", "input": ["model_52/tf.math.add_20/Add"], "attr": {"T": {"type": "DT_FLOAT"}}}, {"name": "model_52/tf.math.multiply_71/Mul", "op": "Mul", "input": ["model_52/tf.math.add_20/Add", "model_52/tf.math.sigmoid_16/Sigmoid"], "attr": {"T": {"type": "DT_FLOAT"}}}, {"name": "model_52/tf.math.add_22/Add", "op": "AddV2", "input": ["model_52/tf.math.multiply_59/Mul", "model_52/tf.math.multiply_71/Mul"], "attr": {"T": {"type": "DT_FLOAT"}}}, {"name": "model_52/tf.math.add_23/Add", "op": "_FusedConv2D", "input": ["model_52/tf.math.add_22/Add", "model_52/tf.nn.convolution_17/convolution/filter", "model_52/tf.math.add_23/Add/y"], "device": "/device:CPU:0", "attr": {"num_host_args": {"i": "0"}, "data_format": {"s": "TkhXQw=="}, "filter_format": {"s": "SFdJTw=="}, "fused_ops": {"list": {"s": ["Qmlhc0FkZA=="]}}, "num_args": {"i": "1"}, "strides": {"list": {"i": ["1", "1", "1", "1"]}}, "TArgs": {"list": {"type": ["DT_FLOAT"]}}, "padding": {"s": "U0FNRQ=="}, "use_cudnn_on_gpu": {"b": true}, "leakyrelu_alpha": {"f": 0.2}, "epsilon": {"f": 0.0}, "T": {"type": "DT_FLOAT"}, "explicit_paddings": {"list": {}}, "dilations": {"list": {"i": ["1", "1", "1", "1"]}}}}, {"name": "model_52/tf.math.sigmoid_17/Sigmoid", "op": "Sigmoid", "input": ["model_52/tf.math.add_23/Add"], "attr": {"T": {"type": "DT_FLOAT"}}}, {"name": "model_52/tf.math.multiply_77/Mul", "op": "Mul", "input": ["model_52/tf.math.add_23/Add", "model_52/tf.math.sigmoid_17/Sigmoid"], "attr": {"T": {"type": "DT_FLOAT"}}}, {"name": "model_52/tf.math.add_24/Add", "op": "_FusedConv2D", "input": ["model_52/tf.math.multiply_77/Mul", "model_52/tf.nn.convolution_18/convolution/filter", "model_52/tf.math.add_24/Add/y"], "device": "/device:CPU:0", "attr": {"num_host_args": {"i": "0"}, "data_format": {"s": "TkhXQw=="}, "filter_format": {"s": "SFdJTw=="}, "strides": {"list": {"i": ["1", "1", "1", "1"]}}, "num_args": {"i": "1"}, "fused_ops": {"list": {"s": ["Qmlhc0FkZA=="]}}, "TArgs": {"list": {"type": ["DT_FLOAT"]}}, "padding": {"s": "U0FNRQ=="}, "use_cudnn_on_gpu": {"b": true}, "leakyrelu_alpha": {"f": 0.2}, "epsilon": {"f": 0.0}, "T": {"type": "DT_FLOAT"}, "explicit_paddings": {"list": {}}, "dilations": {"list": {"i": ["1", "1", "1", "1"]}}}}, {"name": "model_52/tf.math.sigmoid_18/Sigmoid", "op": "Sigmoid", "input": ["model_52/tf.math.add_24/Add"], "attr": {"T": {"type": "DT_FLOAT"}}}, {"name": "model_52/tf.math.multiply_81/Mul", "op": "Mul", "input": ["model_52/tf.math.add_24/Add", "model_52/tf.math.sigmoid_18/Sigmoid"], "attr": {"T": {"type": "DT_FLOAT"}}}, {"name": "model_52/tf.math.add_26/Add", "op": "AddV2", "input": ["model_52/tf.math.add_22/Add", "model_52/tf.math.multiply_81/Mul"], "attr": {"T": {"type": "DT_FLOAT"}}}, {"name": "model_52/tf.concat_2/concat", "op": "ConcatV2", "input": ["model_52/tf.math.add_26/Add", "model_52/tf.math.multiply_63/Mul", "model_52/tf.concat_2/concat/axis"], "attr": {"N": {"i": "2"}, "T": {"type": "DT_FLOAT"}, "Tidx": {"type": "DT_INT32"}}}, {"name": "model_52/tf.math.add_27/Add", "op": "_FusedConv2D", "input": ["model_52/tf.concat_2/concat", "model_52/tf.nn.convolution_19/convolution/filter", "model_52/tf.math.add_27/Add/y"], "device": "/device:CPU:0", "attr": {"num_host_args": {"i": "0"}, "data_format": {"s": "TkhXQw=="}, "filter_format": {"s": "SFdJTw=="}, "strides": {"list": {"i": ["1", "1", "1", "1"]}}, "num_args": {"i": "1"}, "fused_ops": {"list": {"s": ["Qmlhc0FkZA=="]}}, "TArgs": {"list": {"type": ["DT_FLOAT"]}}, "padding": {"s": "U0FNRQ=="}, "use_cudnn_on_gpu": {"b": true}, "leakyrelu_alpha": {"f": 0.2}, "epsilon": {"f": 0.0}, "T": {"type": "DT_FLOAT"}, "explicit_paddings": {"list": {}}, "dilations": {"list": {"i": ["1", "1", "1", "1"]}}}}, {"name": "model_52/tf.math.sigmoid_19/Sigmoid", "op": "Sigmoid", "input": ["model_52/tf.math.add_27/Add"], "attr": {"T": {"type": "DT_FLOAT"}}}, {"name": "model_52/tf.math.multiply_87/Mul", "op": "Mul", "input": ["model_52/tf.math.add_27/Add", "model_52/tf.math.sigmoid_19/Sigmoid"], "attr": {"T": {"type": "DT_FLOAT"}}}, {"name": "model_52/tf.concat_3/concat", "op": "ConcatV2", "input": ["model_52/tf.strided_slice_4/StridedSlice", "model_52/tf.strided_slice_5/StridedSlice", "model_52/tf.math.multiply_87/Mul", "model_52/tf.concat_3/concat/axis"], "attr": {"N": {"i": "3"}, "Tidx": {"type": "DT_INT32"}, "T": {"type": "DT_FLOAT"}}}, {"name": "model_52/tf.math.add_28/Add", "op": "_FusedConv2D", "input": ["model_52/tf.concat_3/concat", "model_52/tf.nn.convolution_20/convolution/filter", "model_52/tf.math.add_28/Add/y"], "device": "/device:CPU:0", "attr": {"num_host_args": {"i": "0"}, "data_format": {"s": "TkhXQw=="}, "filter_format": {"s": "SFdJTw=="}, "fused_ops": {"list": {"s": ["Qmlhc0FkZA=="]}}, "num_args": {"i": "1"}, "strides": {"list": {"i": ["1", "1", "1", "1"]}}, "TArgs": {"list": {"type": ["DT_FLOAT"]}}, "padding": {"s": "U0FNRQ=="}, "use_cudnn_on_gpu": {"b": true}, "leakyrelu_alpha": {"f": 0.2}, "epsilon": {"f": 0.0}, "T": {"type": "DT_FLOAT"}, "explicit_paddings": {"list": {}}, "dilations": {"list": {"i": ["1", "1", "1", "1"]}}}}, {"name": "model_52/tf.math.sigmoid_20/Sigmoid", "op": "Sigmoid", "input": ["model_52/tf.math.add_28/Add"], "attr": {"T": {"type": "DT_FLOAT"}}}, {"name": "model_52/tf.math.multiply_91/Mul", "op": "Mul", "input": ["model_52/tf.math.add_28/Add", "model_52/tf.math.sigmoid_20/Sigmoid"], "attr": {"T": {"type": "DT_FLOAT"}}}, {"name": "model_52/tf.compat.v1.pad_4/Pad", "op": "Pad", "input": ["model_52/tf.math.multiply_91/Mul", "model_52/tf.compat.v1.pad_4/Pad/paddings"], "attr": {"Tpaddings": {"type": "DT_INT32"}, "T": {"type": "DT_FLOAT"}}}, {"name": "model_52/tf.math.add_29/Add", "op": "_FusedConv2D", "input": ["model_52/tf.compat.v1.pad_4/Pad", "model_52/tf.nn.convolution_21/convolution/filter", "model_52/tf.math.add_29/Add/y"], "device": "/device:CPU:0", "attr": {"num_host_args": {"i": "0"}, "data_format": {"s": "TkhXQw=="}, "filter_format": {"s": "SFdJTw=="}, "fused_ops": {"list": {"s": ["Qmlhc0FkZA=="]}}, "num_args": {"i": "1"}, "strides": {"list": {"i": ["1", "2", "2", "1"]}}, "TArgs": {"list": {"type": ["DT_FLOAT"]}}, "padding": {"s": "VkFMSUQ="}, "use_cudnn_on_gpu": {"b": true}, "leakyrelu_alpha": {"f": 0.2}, "epsilon": {"f": 0.0}, "T": {"type": "DT_FLOAT"}, "explicit_paddings": {"list": {}}, "dilations": {"list": {"i": ["1", "1", "1", "1"]}}}}, {"name": "model_52/tf.math.sigmoid_21/Sigmoid", "op": "Sigmoid", "input": ["model_52/tf.math.add_29/Add"], "attr": {"T": {"type": "DT_FLOAT"}}}, {"name": "model_52/tf.math.multiply_95/Mul", "op": "Mul", "input": ["model_52/tf.math.add_29/Add", "model_52/tf.math.sigmoid_21/Sigmoid"], "attr": {"T": {"type": "DT_FLOAT"}}}, {"name": "model_52/tf.math.add_30/Add", "op": "_FusedConv2D", "input": ["model_52/tf.math.multiply_95/Mul", "model_52/tf.nn.convolution_22/convolution/filter", "model_52/tf.math.add_30/Add/y"], "device": "/device:CPU:0", "attr": {"num_host_args": {"i": "0"}, "data_format": {"s": "TkhXQw=="}, "filter_format": {"s": "SFdJTw=="}, "fused_ops": {"list": {"s": ["Qmlhc0FkZA=="]}}, "num_args": {"i": "1"}, "strides": {"list": {"i": ["1", "1", "1", "1"]}}, "TArgs": {"list": {"type": ["DT_FLOAT"]}}, "padding": {"s": "U0FNRQ=="}, "use_cudnn_on_gpu": {"b": true}, "leakyrelu_alpha": {"f": 0.2}, "epsilon": {"f": 0.0}, "T": {"type": "DT_FLOAT"}, "explicit_paddings": {"list": {}}, "dilations": {"list": {"i": ["1", "1", "1", "1"]}}}}, {"name": "model_52/tf.math.sigmoid_22/Sigmoid", "op": "Sigmoid", "input": ["model_52/tf.math.add_30/Add"], "attr": {"T": {"type": "DT_FLOAT"}}}, {"name": "model_52/tf.math.multiply_99/Mul", "op": "Mul", "input": ["model_52/tf.math.add_30/Add", "model_52/tf.math.sigmoid_22/Sigmoid"], "attr": {"T": {"type": "DT_FLOAT"}}}, {"name": "model_52/tf.strided_slice_6/StridedSlice", "op": "StridedSlice", "input": ["model_52/tf.math.multiply_99/Mul", "model_52/tf.strided_slice_6/ones_like/tensor", "model_52/tf.strided_slice_6/StridedSlice/end", "model_52/tf.strided_slice_6/ones_like"], "attr": {"shrink_axis_mask": {"i": "0"}, "Index": {"type": "DT_INT64"}, "new_axis_mask": {"i": "0"}, "begin_mask": {"i": "15"}, "end_mask": {"i": "7"}, "T": {"type": "DT_FLOAT"}, "ellipsis_mask": {"i": "0"}}}, {"name": "model_52/tf.strided_slice_7/StridedSlice", "op": "StridedSlice", "input": ["model_52/tf.math.multiply_99/Mul", "model_52/tf.strided_slice_7/ones_like/tensor", "model_52/tf.strided_slice_7/StridedSlice/end", "model_52/tf.strided_slice_7/ones_like"], "attr": {"shrink_axis_mask": {"i": "0"}, "new_axis_mask": {"i": "0"}, "Index": {"type": "DT_INT64"}, "begin_mask": {"i": "7"}, "T": {"type": "DT_FLOAT"}, "end_mask": {"i": "7"}, "ellipsis_mask": {"i": "0"}}}, {"name": "model_52/tf.math.add_31/Add", "op": "_FusedConv2D", "input": ["model_52/tf.strided_slice_7/StridedSlice", "model_52/tf.nn.convolution_23/convolution/filter", "model_52/tf.math.add_31/Add/y"], "device": "/device:CPU:0", "attr": {"num_host_args": {"i": "0"}, "data_format": {"s": "TkhXQw=="}, "filter_format": {"s": "SFdJTw=="}, "strides": {"list": {"i": ["1", "1", "1", "1"]}}, "num_args": {"i": "1"}, "fused_ops": {"list": {"s": ["Qmlhc0FkZA=="]}}, "TArgs": {"list": {"type": ["DT_FLOAT"]}}, "padding": {"s": "U0FNRQ=="}, "use_cudnn_on_gpu": {"b": true}, "leakyrelu_alpha": {"f": 0.2}, "epsilon": {"f": 0.0}, "T": {"type": "DT_FLOAT"}, "explicit_paddings": {"list": {}}, "dilations": {"list": {"i": ["1", "1", "1", "1"]}}}}, {"name": "model_52/tf.math.add_32/Add", "op": "_FusedConv2D", "input": ["model_52/tf.strided_slice_7/StridedSlice", "model_52/tf.nn.convolution_24/convolution/filter", "model_52/tf.math.add_32/Add/y"], "device": "/device:CPU:0", "attr": {"num_host_args": {"i": "0"}, "data_format": {"s": "TkhXQw=="}, "filter_format": {"s": "SFdJTw=="}, "strides": {"list": {"i": ["1", "1", "1", "1"]}}, "num_args": {"i": "1"}, "fused_ops": {"list": {"s": ["Qmlhc0FkZA=="]}}, "TArgs": {"list": {"type": ["DT_FLOAT"]}}, "padding": {"s": "U0FNRQ=="}, "use_cudnn_on_gpu": {"b": true}, "leakyrelu_alpha": {"f": 0.2}, "epsilon": {"f": 0.0}, "T": {"type": "DT_FLOAT"}, "explicit_paddings": {"list": {}}, "dilations": {"list": {"i": ["1", "1", "1", "1"]}}}}, {"name": "model_52/tf.math.sigmoid_23/Sigmoid", "op": "Sigmoid", "input": ["model_52/tf.math.add_31/Add"], "attr": {"T": {"type": "DT_FLOAT"}}}, {"name": "model_52/tf.math.sigmoid_24/Sigmoid", "op": "Sigmoid", "input": ["model_52/tf.math.add_32/Add"], "attr": {"T": {"type": "DT_FLOAT"}}}, {"name": "model_52/tf.math.multiply_103/Mul", "op": "Mul", "input": ["model_52/tf.math.add_31/Add", "model_52/tf.math.sigmoid_23/Sigmoid"], "attr": {"T": {"type": "DT_FLOAT"}}}, {"name": "model_52/tf.math.multiply_107/Mul", "op": "Mul", "input": ["model_52/tf.math.add_32/Add", "model_52/tf.math.sigmoid_24/Sigmoid"], "attr": {"T": {"type": "DT_FLOAT"}}}, {"name": "model_52/tf.math.add_33/Add", "op": "_FusedConv2D", "input": ["model_52/tf.math.multiply_103/Mul", "model_52/tf.nn.convolution_25/convolution/filter", "model_52/tf.math.add_33/Add/y"], "device": "/device:CPU:0", "attr": {"num_host_args": {"i": "0"}, "data_format": {"s": "TkhXQw=="}, "filter_format": {"s": "SFdJTw=="}, "strides": {"list": {"i": ["1", "1", "1", "1"]}}, "num_args": {"i": "1"}, "fused_ops": {"list": {"s": ["Qmlhc0FkZA=="]}}, "TArgs": {"list": {"type": ["DT_FLOAT"]}}, "padding": {"s": "U0FNRQ=="}, "use_cudnn_on_gpu": {"b": true}, "leakyrelu_alpha": {"f": 0.2}, "epsilon": {"f": 0.0}, "T": {"type": "DT_FLOAT"}, "explicit_paddings": {"list": {}}, "dilations": {"list": {"i": ["1", "1", "1", "1"]}}}}, {"name": "model_52/tf.math.sigmoid_25/Sigmoid", "op": "Sigmoid", "input": ["model_52/tf.math.add_33/Add"], "attr": {"T": {"type": "DT_FLOAT"}}}, {"name": "model_52/tf.math.multiply_111/Mul", "op": "Mul", "input": ["model_52/tf.math.add_33/Add", "model_52/tf.math.sigmoid_25/Sigmoid"], "attr": {"T": {"type": "DT_FLOAT"}}}, {"name": "model_52/tf.math.add_34/Add", "op": "_FusedConv2D", "input": ["model_52/tf.math.multiply_111/Mul", "model_52/tf.nn.convolution_26/convolution/filter", "model_52/tf.math.add_34/Add/y"], "device": "/device:CPU:0", "attr": {"num_host_args": {"i": "0"}, "data_format": {"s": "TkhXQw=="}, "filter_format": {"s": "SFdJTw=="}, "fused_ops": {"list": {"s": ["Qmlhc0FkZA=="]}}, "num_args": {"i": "1"}, "strides": {"list": {"i": ["1", "1", "1", "1"]}}, "TArgs": {"list": {"type": ["DT_FLOAT"]}}, "padding": {"s": "U0FNRQ=="}, "use_cudnn_on_gpu": {"b": true}, "leakyrelu_alpha": {"f": 0.2}, "epsilon": {"f": 0.0}, "T": {"type": "DT_FLOAT"}, "explicit_paddings": {"list": {}}, "dilations": {"list": {"i": ["1", "1", "1", "1"]}}}}, {"name": "model_52/tf.math.sigmoid_26/Sigmoid", "op": "Sigmoid", "input": ["model_52/tf.math.add_34/Add"], "attr": {"T": {"type": "DT_FLOAT"}}}, {"name": "model_52/tf.math.multiply_115/Mul", "op": "Mul", "input": ["model_52/tf.math.add_34/Add", "model_52/tf.math.sigmoid_26/Sigmoid"], "attr": {"T": {"type": "DT_FLOAT"}}}, {"name": "model_52/tf.math.add_36/Add", "op": "AddV2", "input": ["model_52/tf.math.multiply_103/Mul", "model_52/tf.math.multiply_115/Mul"], "attr": {"T": {"type": "DT_FLOAT"}}}, {"name": "model_52/tf.math.add_37/Add", "op": "_FusedConv2D", "input": ["model_52/tf.math.add_36/Add", "model_52/tf.nn.convolution_27/convolution/filter", "model_52/tf.math.add_37/Add/y"], "device": "/device:CPU:0", "attr": {"num_host_args": {"i": "0"}, "data_format": {"s": "TkhXQw=="}, "filter_format": {"s": "SFdJTw=="}, "fused_ops": {"list": {"s": ["Qmlhc0FkZA=="]}}, "num_args": {"i": "1"}, "strides": {"list": {"i": ["1", "1", "1", "1"]}}, "TArgs": {"list": {"type": ["DT_FLOAT"]}}, "padding": {"s": "U0FNRQ=="}, "use_cudnn_on_gpu": {"b": true}, "leakyrelu_alpha": {"f": 0.2}, "epsilon": {"f": 0.0}, "T": {"type": "DT_FLOAT"}, "explicit_paddings": {"list": {}}, "dilations": {"list": {"i": ["1", "1", "1", "1"]}}}}, {"name": "model_52/tf.math.sigmoid_27/Sigmoid", "op": "Sigmoid", "input": ["model_52/tf.math.add_37/Add"], "attr": {"T": {"type": "DT_FLOAT"}}}, {"name": "model_52/tf.math.multiply_121/Mul", "op": "Mul", "input": ["model_52/tf.math.add_37/Add", "model_52/tf.math.sigmoid_27/Sigmoid"], "attr": {"T": {"type": "DT_FLOAT"}}}, {"name": "model_52/tf.math.add_38/Add", "op": "_FusedConv2D", "input": ["model_52/tf.math.multiply_121/Mul", "model_52/tf.nn.convolution_28/convolution/filter", "model_52/tf.math.add_38/Add/y"], "device": "/device:CPU:0", "attr": {"num_host_args": {"i": "0"}, "data_format": {"s": "TkhXQw=="}, "filter_format": {"s": "SFdJTw=="}, "fused_ops": {"list": {"s": ["Qmlhc0FkZA=="]}}, "num_args": {"i": "1"}, "strides": {"list": {"i": ["1", "1", "1", "1"]}}, "TArgs": {"list": {"type": ["DT_FLOAT"]}}, "padding": {"s": "U0FNRQ=="}, "use_cudnn_on_gpu": {"b": true}, "leakyrelu_alpha": {"f": 0.2}, "epsilon": {"f": 0.0}, "T": {"type": "DT_FLOAT"}, "explicit_paddings": {"list": {}}, "dilations": {"list": {"i": ["1", "1", "1", "1"]}}}}, {"name": "model_52/tf.math.sigmoid_28/Sigmoid", "op": "Sigmoid", "input": ["model_52/tf.math.add_38/Add"], "attr": {"T": {"type": "DT_FLOAT"}}}, {"name": "model_52/tf.math.multiply_125/Mul", "op": "Mul", "input": ["model_52/tf.math.add_38/Add", "model_52/tf.math.sigmoid_28/Sigmoid"], "attr": {"T": {"type": "DT_FLOAT"}}}, {"name": "model_52/tf.math.add_40/Add", "op": "AddV2", "input": ["model_52/tf.math.add_36/Add", "model_52/tf.math.multiply_125/Mul"], "attr": {"T": {"type": "DT_FLOAT"}}}, {"name": "model_52/tf.concat_4/concat", "op": "ConcatV2", "input": ["model_52/tf.math.add_40/Add", "model_52/tf.math.multiply_107/Mul", "model_52/tf.concat_4/concat/axis"], "attr": {"N": {"i": "2"}, "Tidx": {"type": "DT_INT32"}, "T": {"type": "DT_FLOAT"}}}, {"name": "model_52/tf.math.add_41/Add", "op": "_FusedConv2D", "input": ["model_52/tf.concat_4/concat", "model_52/tf.nn.convolution_29/convolution/filter", "model_52/tf.math.add_41/Add/y"], "device": "/device:CPU:0", "attr": {"num_host_args": {"i": "0"}, "data_format": {"s": "TkhXQw=="}, "filter_format": {"s": "SFdJTw=="}, "fused_ops": {"list": {"s": ["Qmlhc0FkZA=="]}}, "num_args": {"i": "1"}, "strides": {"list": {"i": ["1", "1", "1", "1"]}}, "TArgs": {"list": {"type": ["DT_FLOAT"]}}, "padding": {"s": "U0FNRQ=="}, "use_cudnn_on_gpu": {"b": true}, "leakyrelu_alpha": {"f": 0.2}, "epsilon": {"f": 0.0}, "T": {"type": "DT_FLOAT"}, "explicit_paddings": {"list": {}}, "dilations": {"list": {"i": ["1", "1", "1", "1"]}}}}, {"name": "model_52/tf.math.sigmoid_29/Sigmoid", "op": "Sigmoid", "input": ["model_52/tf.math.add_41/Add"], "attr": {"T": {"type": "DT_FLOAT"}}}, {"name": "model_52/tf.math.multiply_131/Mul", "op": "Mul", "input": ["model_52/tf.math.add_41/Add", "model_52/tf.math.sigmoid_29/Sigmoid"], "attr": {"T": {"type": "DT_FLOAT"}}}, {"name": "model_52/tf.concat_5/concat", "op": "ConcatV2", "input": ["model_52/tf.strided_slice_6/StridedSlice", "model_52/tf.strided_slice_7/StridedSlice", "model_52/tf.math.multiply_131/Mul", "model_52/tf.concat_5/concat/axis"], "attr": {"N": {"i": "3"}, "T": {"type": "DT_FLOAT"}, "Tidx": {"type": "DT_INT32"}}}, {"name": "model_52/tf.math.add_42/Add", "op": "_FusedConv2D", "input": ["model_52/tf.concat_5/concat", "model_52/tf.nn.convolution_30/convolution/filter", "model_52/tf.math.add_42/Add/y"], "device": "/device:CPU:0", "attr": {"num_host_args": {"i": "0"}, "data_format": {"s": "TkhXQw=="}, "filter_format": {"s": "SFdJTw=="}, "fused_ops": {"list": {"s": ["Qmlhc0FkZA=="]}}, "num_args": {"i": "1"}, "strides": {"list": {"i": ["1", "1", "1", "1"]}}, "TArgs": {"list": {"type": ["DT_FLOAT"]}}, "padding": {"s": "U0FNRQ=="}, "use_cudnn_on_gpu": {"b": true}, "leakyrelu_alpha": {"f": 0.2}, "epsilon": {"f": 0.0}, "T": {"type": "DT_FLOAT"}, "explicit_paddings": {"list": {}}, "dilations": {"list": {"i": ["1", "1", "1", "1"]}}}}, {"name": "model_52/tf.math.sigmoid_30/Sigmoid", "op": "Sigmoid", "input": ["model_52/tf.math.add_42/Add"], "attr": {"T": {"type": "DT_FLOAT"}}}, {"name": "model_52/tf.math.multiply_135/Mul", "op": "Mul", "input": ["model_52/tf.math.add_42/Add", "model_52/tf.math.sigmoid_30/Sigmoid"], "attr": {"T": {"type": "DT_FLOAT"}}}, {"name": "model_52/tf.math.add_43/Add", "op": "_FusedConv2D", "input": ["model_52/tf.math.multiply_135/Mul", "model_52/tf.nn.convolution_31/convolution/filter", "model_52/tf.math.add_43/Add/y"], "device": "/device:CPU:0", "attr": {"num_host_args": {"i": "0"}, "data_format": {"s": "TkhXQw=="}, "filter_format": {"s": "SFdJTw=="}, "strides": {"list": {"i": ["1", "1", "1", "1"]}}, "num_args": {"i": "1"}, "fused_ops": {"list": {"s": ["Qmlhc0FkZA=="]}}, "TArgs": {"list": {"type": ["DT_FLOAT"]}}, "padding": {"s": "U0FNRQ=="}, "use_cudnn_on_gpu": {"b": true}, "leakyrelu_alpha": {"f": 0.2}, "epsilon": {"f": 0.0}, "T": {"type": "DT_FLOAT"}, "explicit_paddings": {"list": {}}, "dilations": {"list": {"i": ["1", "1", "1", "1"]}}}}, {"name": "model_52/tf.math.sigmoid_31/Sigmoid", "op": "Sigmoid", "input": ["model_52/tf.math.add_43/Add"], "attr": {"T": {"type": "DT_FLOAT"}}}, {"name": "model_52/tf.math.multiply_139/Mul", "op": "Mul", "input": ["model_52/tf.math.add_43/Add", "model_52/tf.math.sigmoid_31/Sigmoid"], "attr": {"T": {"type": "DT_FLOAT"}}}, {"name": "model_52/tf.strided_slice_8/StridedSlice", "op": "StridedSlice", "input": ["model_52/tf.math.multiply_139/Mul", "model_52/tf.strided_slice_8/StridedSlice/begin", "model_52/tf.strided_slice_8/StridedSlice/end", "model_52/tf.strided_slice_8/ones_like"], "attr": {"shrink_axis_mask": {"i": "0"}, "Index": {"type": "DT_INT32"}, "new_axis_mask": {"i": "0"}, "begin_mask": {"i": "7"}, "end_mask": {"i": "7"}, "T": {"type": "DT_FLOAT"}, "ellipsis_mask": {"i": "0"}}}, {"name": "model_52/tf.strided_slice_9/StridedSlice", "op": "StridedSlice", "input": ["model_52/tf.math.multiply_139/Mul", "model_52/tf.strided_slice_9/StridedSlice/begin", "model_52/tf.strided_slice_9/StridedSlice/end", "model_52/tf.strided_slice_9/ones_like"], "attr": {"shrink_axis_mask": {"i": "0"}, "Index": {"type": "DT_INT32"}, "new_axis_mask": {"i": "0"}, "begin_mask": {"i": "7"}, "T": {"type": "DT_FLOAT"}, "end_mask": {"i": "7"}, "ellipsis_mask": {"i": "0"}}}, {"name": "model_52/tf.math.add_44/Add", "op": "_FusedConv2D", "input": ["model_52/tf.strided_slice_9/StridedSlice", "model_52/tf.nn.convolution_32/convolution/filter", "model_52/tf.math.add_44/Add/y"], "device": "/device:CPU:0", "attr": {"num_host_args": {"i": "0"}, "data_format": {"s": "TkhXQw=="}, "filter_format": {"s": "SFdJTw=="}, "fused_ops": {"list": {"s": ["Qmlhc0FkZA=="]}}, "num_args": {"i": "1"}, "strides": {"list": {"i": ["1", "1", "1", "1"]}}, "TArgs": {"list": {"type": ["DT_FLOAT"]}}, "padding": {"s": "U0FNRQ=="}, "use_cudnn_on_gpu": {"b": true}, "leakyrelu_alpha": {"f": 0.2}, "epsilon": {"f": 0.0}, "T": {"type": "DT_FLOAT"}, "explicit_paddings": {"list": {}}, "dilations": {"list": {"i": ["1", "1", "1", "1"]}}}}, {"name": "model_52/tf.compat.v1.transpose_40/transpose", "op": "Transpose", "input": ["model_52/tf.math.add_44/Add", "model_52/tf.compat.v1.transpose_40/transpose/perm"], "attr": {"Tperm": {"type": "DT_INT32"}, "T": {"type": "DT_FLOAT"}}}, {"name": "model_52/tf.reshape_2/Reshape", "op": "Reshape", "input": ["model_52/tf.compat.v1.transpose_40/transpose", "model_52/tf.reshape_2/Reshape/shape"], "attr": {"T": {"type": "DT_FLOAT"}, "Tshape": {"type": "DT_INT32"}}}, {"name": "model_52/tf.strided_slice_10/StridedSlice", "op": "StridedSlice", "input": ["model_52/tf.reshape_2/Reshape", "model_52/tf.strided_slice_10/StridedSlice/begin", "model_52/tf.strided_slice_10/StridedSlice/end", "model_52/tf.strided_slice_10/ones_like"], "attr": {"shrink_axis_mask": {"i": "0"}, "Index": {"type": "DT_INT32"}, "new_axis_mask": {"i": "0"}, "begin_mask": {"i": "11"}, "end_mask": {"i": "11"}, "T": {"type": "DT_FLOAT"}, "ellipsis_mask": {"i": "0"}}}, {"name": "model_52/tf.strided_slice_11/StridedSlice", "op": "StridedSlice", "input": ["model_52/tf.reshape_2/Reshape", "model_52/tf.strided_slice_11/StridedSlice/begin", "model_52/tf.strided_slice_11/StridedSlice/end", "model_52/tf.strided_slice_11/ones_like"], "attr": {"shrink_axis_mask": {"i": "0"}, "Index": {"type": "DT_INT32"}, "new_axis_mask": {"i": "0"}, "begin_mask": {"i": "11"}, "T": {"type": "DT_FLOAT"}, "end_mask": {"i": "11"}, "ellipsis_mask": {"i": "0"}}}, {"name": "model_52/tf.strided_slice_12/StridedSlice", "op": "StridedSlice", "input": ["model_52/tf.reshape_2/Reshape", "model_52/tf.strided_slice_12/StridedSlice/begin", "model_52/tf.strided_slice_12/StridedSlice/end", "model_52/tf.strided_slice_12/ones_like"], "attr": {"shrink_axis_mask": {"i": "0"}, "new_axis_mask": {"i": "0"}, "Index": {"type": "DT_INT32"}, "begin_mask": {"i": "11"}, "T": {"type": "DT_FLOAT"}, "end_mask": {"i": "11"}, "ellipsis_mask": {"i": "0"}}}, {"name": "model_52/tf.linalg.matmul_6/ArithmeticOptimizer/FoldTransposeIntoMatMul_MatMul", "op": "BatchMatMulV2", "input": ["model_52/tf.strided_slice_10/StridedSlice", "model_52/tf.strided_slice_11/StridedSlice"], "attr": {"grad_y": {"b": false}, "adj_x": {"b": true}, "T": {"type": "DT_FLOAT"}, "grad_x": {"b": false}, "adj_y": {"b": false}}}, {"name": "model_52/tf.reshape_5/Reshape", "op": "Reshape", "input": ["model_52/tf.strided_slice_12/StridedSlice", "model_52/tf.reshape_5/Reshape/shape"], "attr": {"T": {"type": "DT_FLOAT"}, "Tshape": {"type": "DT_INT32"}}}, {"name": "model_52/tf.math.multiply_142/Mul", "op": "Mul", "input": ["model_52/tf.linalg.matmul_6/ArithmeticOptimizer/FoldTransposeIntoMatMul_MatMul", "model_52/tf.math.multiply_142/Mul/y"], "attr": {"T": {"type": "DT_FLOAT"}}}, {"name": "model_52/tf.compat.v1.transpose_56/transpose", "op": "Transpose", "input": ["model_52/tf.reshape_5/Reshape", "model_52/tf.compat.v1.transpose_56/transpose/perm"], "attr": {"Tperm": {"type": "DT_INT32"}, "T": {"type": "DT_FLOAT"}}}, {"name": "model_52/tf.nn.softmax_1/wa/model.9/m/m.0/attn/Softmax", "op": "Softmax", "input": ["model_52/tf.math.multiply_142/Mul"], "attr": {"T": {"type": "DT_FLOAT"}}}, {"name": "model_52/tf.split/split", "op": "Split", "input": ["model_52/tf.split/split/split_dim", "model_52/tf.compat.v1.transpose_56/transpose"], "attr": {"num_split": {"i": "128"}, "T": {"type": "DT_FLOAT"}}}, {"name": "model_52/tf.linalg.matmul_19/ArithmeticOptimizer/FoldTransposeIntoMatMul_MatMul", "op": "BatchMatMulV2", "input": ["model_52/tf.strided_slice_12/StridedSlice", "model_52/tf.nn.softmax_1/wa/model.9/m/m.0/attn/Softmax"], "attr": {"grad_y": {"b": false}, "adj_x": {"b": false}, "T": {"type": "DT_FLOAT"}, "grad_x": {"b": false}, "adj_y": {"b": true}}}, {"name": "model_52/tf.nn.convolution_33/convolution", "op": "Conv2D", "input": ["model_52/tf.split/split", "model_52/tf.nn.convolution_33/convolution/filter"], "device": "/device:CPU:0", "attr": {"padding": {"s": "U0FNRQ=="}, "data_format": {"s": "TkhXQw=="}, "use_cudnn_on_gpu": {"b": true}, "strides": {"list": {"i": ["1", "1", "1", "1"]}}, "T": {"type": "DT_FLOAT"}, "explicit_paddings": {"list": {}}, "dilations": {"list": {"i": ["1", "1", "1", "1"]}}}}, {"name": "model_52/tf.nn.convolution_34/convolution", "op": "Conv2D", "input": ["model_52/tf.split/split:1", "model_52/tf.nn.convolution_34/convolution/filter"], "device": "/device:CPU:0", "attr": {"padding": {"s": "U0FNRQ=="}, "data_format": {"s": "TkhXQw=="}, "strides": {"list": {"i": ["1", "1", "1", "1"]}}, "use_cudnn_on_gpu": {"b": true}, "T": {"type": "DT_FLOAT"}, "explicit_paddings": {"list": {}}, "dilations": {"list": {"i": ["1", "1", "1", "1"]}}}}, {"name": "model_52/tf.nn.convolution_35/convolution", "op": "Conv2D", "input": ["model_52/tf.split/split:2", "model_52/tf.nn.convolution_35/convolution/filter"], "device": "/device:CPU:0", "attr": {"padding": {"s": "U0FNRQ=="}, "data_format": {"s": "TkhXQw=="}, "strides": {"list": {"i": ["1", "1", "1", "1"]}}, "use_cudnn_on_gpu": {"b": true}, "T": {"type": "DT_FLOAT"}, "explicit_paddings": {"list": {}}, "dilations": {"list": {"i": ["1", "1", "1", "1"]}}}}, {"name": "model_52/tf.nn.convolution_36/convolution", "op": "Conv2D", "input": ["model_52/tf.split/split:3", "model_52/tf.nn.convolution_36/convolution/filter"], "device": "/device:CPU:0", "attr": {"padding": {"s": "U0FNRQ=="}, "data_format": {"s": "TkhXQw=="}, "use_cudnn_on_gpu": {"b": true}, "strides": {"list": {"i": ["1", "1", "1", "1"]}}, "T": {"type": "DT_FLOAT"}, "explicit_paddings": {"list": {}}, "dilations": {"list": {"i": ["1", "1", "1", "1"]}}}}, {"name": "model_52/tf.nn.convolution_37/convolution", "op": "Conv2D", "input": ["model_52/tf.split/split:4", "model_52/tf.nn.convolution_37/convolution/filter"], "device": "/device:CPU:0", "attr": {"padding": {"s": "U0FNRQ=="}, "data_format": {"s": "TkhXQw=="}, "use_cudnn_on_gpu": {"b": true}, "strides": {"list": {"i": ["1", "1", "1", "1"]}}, "T": {"type": "DT_FLOAT"}, "explicit_paddings": {"list": {}}, "dilations": {"list": {"i": ["1", "1", "1", "1"]}}}}, {"name": "model_52/tf.nn.convolution_38/convolution", "op": "Conv2D", "input": ["model_52/tf.split/split:5", "model_52/tf.nn.convolution_38/convolution/filter"], "device": "/device:CPU:0", "attr": {"padding": {"s": "U0FNRQ=="}, "data_format": {"s": "TkhXQw=="}, "strides": {"list": {"i": ["1", "1", "1", "1"]}}, "use_cudnn_on_gpu": {"b": true}, "T": {"type": "DT_FLOAT"}, "explicit_paddings": {"list": {}}, "dilations": {"list": {"i": ["1", "1", "1", "1"]}}}}, {"name": "model_52/tf.nn.convolution_39/convolution", "op": "Conv2D", "input": ["model_52/tf.split/split:6", "model_52/tf.nn.convolution_39/convolution/filter"], "device": "/device:CPU:0", "attr": {"padding": {"s": "U0FNRQ=="}, "data_format": {"s": "TkhXQw=="}, "strides": {"list": {"i": ["1", "1", "1", "1"]}}, "use_cudnn_on_gpu": {"b": true}, "T": {"type": "DT_FLOAT"}, "explicit_paddings": {"list": {}}, "dilations": {"list": {"i": ["1", "1", "1", "1"]}}}}, {"name": "model_52/tf.nn.convolution_40/convolution", "op": "Conv2D", "input": ["model_52/tf.split/split:7", "model_52/tf.nn.convolution_40/convolution/filter"], "device": "/device:CPU:0", "attr": {"padding": {"s": "U0FNRQ=="}, "data_format": {"s": "TkhXQw=="}, "strides": {"list": {"i": ["1", "1", "1", "1"]}}, "use_cudnn_on_gpu": {"b": true}, "T": {"type": "DT_FLOAT"}, "explicit_paddings": {"list": {}}, "dilations": {"list": {"i": ["1", "1", "1", "1"]}}}}, {"name": "model_52/tf.nn.convolution_41/convolution", "op": "Conv2D", "input": ["model_52/tf.split/split:8", "model_52/tf.nn.convolution_41/convolution/filter"], "device": "/device:CPU:0", "attr": {"padding": {"s": "U0FNRQ=="}, "data_format": {"s": "TkhXQw=="}, "strides": {"list": {"i": ["1", "1", "1", "1"]}}, "use_cudnn_on_gpu": {"b": true}, "T": {"type": "DT_FLOAT"}, "explicit_paddings": {"list": {}}, "dilations": {"list": {"i": ["1", "1", "1", "1"]}}}}, {"name": "model_52/tf.nn.convolution_42/convolution", "op": "Conv2D", "input": ["model_52/tf.split/split:9", "model_52/tf.nn.convolution_42/convolution/filter"], "device": "/device:CPU:0", "attr": {"padding": {"s": "U0FNRQ=="}, "data_format": {"s": "TkhXQw=="}, "strides": {"list": {"i": ["1", "1", "1", "1"]}}, "use_cudnn_on_gpu": {"b": true}, "T": {"type": "DT_FLOAT"}, "explicit_paddings": {"list": {}}, "dilations": {"list": {"i": ["1", "1", "1", "1"]}}}}, {"name": "model_52/tf.nn.convolution_43/convolution", "op": "Conv2D", "input": ["model_52/tf.split/split:10", "model_52/tf.nn.convolution_43/convolution/filter"], "device": "/device:CPU:0", "attr": {"padding": {"s": "U0FNRQ=="}, "data_format": {"s": "TkhXQw=="}, "strides": {"list": {"i": ["1", "1", "1", "1"]}}, "use_cudnn_on_gpu": {"b": true}, "T": {"type": "DT_FLOAT"}, "explicit_paddings": {"list": {}}, "dilations": {"list": {"i": ["1", "1", "1", "1"]}}}}, {"name": "model_52/tf.nn.convolution_44/convolution", "op": "Conv2D", "input": ["model_52/tf.split/split:11", "model_52/tf.nn.convolution_44/convolution/filter"], "device": "/device:CPU:0", "attr": {"padding": {"s": "U0FNRQ=="}, "data_format": {"s": "TkhXQw=="}, "strides": {"list": {"i": ["1", "1", "1", "1"]}}, "use_cudnn_on_gpu": {"b": true}, "T": {"type": "DT_FLOAT"}, "explicit_paddings": {"list": {}}, "dilations": {"list": {"i": ["1", "1", "1", "1"]}}}}, {"name": "model_52/tf.nn.convolution_45/convolution", "op": "Conv2D", "input": ["model_52/tf.split/split:12", "model_52/tf.nn.convolution_45/convolution/filter"], "device": "/device:CPU:0", "attr": {"padding": {"s": "U0FNRQ=="}, "data_format": {"s": "TkhXQw=="}, "strides": {"list": {"i": ["1", "1", "1", "1"]}}, "use_cudnn_on_gpu": {"b": true}, "T": {"type": "DT_FLOAT"}, "explicit_paddings": {"list": {}}, "dilations": {"list": {"i": ["1", "1", "1", "1"]}}}}, {"name": "model_52/tf.nn.convolution_46/convolution", "op": "Conv2D", "input": ["model_52/tf.split/split:13", "model_52/tf.nn.convolution_46/convolution/filter"], "device": "/device:CPU:0", "attr": {"padding": {"s": "U0FNRQ=="}, "data_format": {"s": "TkhXQw=="}, "use_cudnn_on_gpu": {"b": true}, "strides": {"list": {"i": ["1", "1", "1", "1"]}}, "T": {"type": "DT_FLOAT"}, "explicit_paddings": {"list": {}}, "dilations": {"list": {"i": ["1", "1", "1", "1"]}}}}, {"name": "model_52/tf.nn.convolution_47/convolution", "op": "Conv2D", "input": ["model_52/tf.split/split:14", "model_52/tf.nn.convolution_47/convolution/filter"], "device": "/device:CPU:0", "attr": {"padding": {"s": "U0FNRQ=="}, "data_format": {"s": "TkhXQw=="}, "use_cudnn_on_gpu": {"b": true}, "strides": {"list": {"i": ["1", "1", "1", "1"]}}, "T": {"type": "DT_FLOAT"}, "explicit_paddings": {"list": {}}, "dilations": {"list": {"i": ["1", "1", "1", "1"]}}}}, {"name": "model_52/tf.nn.convolution_48/convolution", "op": "Conv2D", "input": ["model_52/tf.split/split:15", "model_52/tf.nn.convolution_48/convolution/filter"], "device": "/device:CPU:0", "attr": {"padding": {"s": "U0FNRQ=="}, "data_format": {"s": "TkhXQw=="}, "use_cudnn_on_gpu": {"b": true}, "strides": {"list": {"i": ["1", "1", "1", "1"]}}, "T": {"type": "DT_FLOAT"}, "explicit_paddings": {"list": {}}, "dilations": {"list": {"i": ["1", "1", "1", "1"]}}}}, {"name": "model_52/tf.nn.convolution_49/convolution", "op": "Conv2D", "input": ["model_52/tf.split/split:16", "model_52/tf.nn.convolution_49/convolution/filter"], "device": "/device:CPU:0", "attr": {"padding": {"s": "U0FNRQ=="}, "data_format": {"s": "TkhXQw=="}, "use_cudnn_on_gpu": {"b": true}, "strides": {"list": {"i": ["1", "1", "1", "1"]}}, "T": {"type": "DT_FLOAT"}, "explicit_paddings": {"list": {}}, "dilations": {"list": {"i": ["1", "1", "1", "1"]}}}}, {"name": "model_52/tf.nn.convolution_50/convolution", "op": "Conv2D", "input": ["model_52/tf.split/split:17", "model_52/tf.nn.convolution_50/convolution/filter"], "device": "/device:CPU:0", "attr": {"padding": {"s": "U0FNRQ=="}, "data_format": {"s": "TkhXQw=="}, "strides": {"list": {"i": ["1", "1", "1", "1"]}}, "use_cudnn_on_gpu": {"b": true}, "T": {"type": "DT_FLOAT"}, "explicit_paddings": {"list": {}}, "dilations": {"list": {"i": ["1", "1", "1", "1"]}}}}, {"name": "model_52/tf.nn.convolution_51/convolution", "op": "Conv2D", "input": ["model_52/tf.split/split:18", "model_52/tf.nn.convolution_51/convolution/filter"], "device": "/device:CPU:0", "attr": {"padding": {"s": "U0FNRQ=="}, "data_format": {"s": "TkhXQw=="}, "use_cudnn_on_gpu": {"b": true}, "strides": {"list": {"i": ["1", "1", "1", "1"]}}, "T": {"type": "DT_FLOAT"}, "explicit_paddings": {"list": {}}, "dilations": {"list": {"i": ["1", "1", "1", "1"]}}}}, {"name": "model_52/tf.nn.convolution_52/convolution", "op": "Conv2D", "input": ["model_52/tf.split/split:19", "model_52/tf.nn.convolution_52/convolution/filter"], "device": "/device:CPU:0", "attr": {"padding": {"s": "U0FNRQ=="}, "data_format": {"s": "TkhXQw=="}, "strides": {"list": {"i": ["1", "1", "1", "1"]}}, "use_cudnn_on_gpu": {"b": true}, "T": {"type": "DT_FLOAT"}, "explicit_paddings": {"list": {}}, "dilations": {"list": {"i": ["1", "1", "1", "1"]}}}}, {"name": "model_52/tf.nn.convolution_53/convolution", "op": "Conv2D", "input": ["model_52/tf.split/split:20", "model_52/tf.nn.convolution_53/convolution/filter"], "device": "/device:CPU:0", "attr": {"padding": {"s": "U0FNRQ=="}, "data_format": {"s": "TkhXQw=="}, "use_cudnn_on_gpu": {"b": true}, "strides": {"list": {"i": ["1", "1", "1", "1"]}}, "T": {"type": "DT_FLOAT"}, "explicit_paddings": {"list": {}}, "dilations": {"list": {"i": ["1", "1", "1", "1"]}}}}, {"name": "model_52/tf.nn.convolution_54/convolution", "op": "Conv2D", "input": ["model_52/tf.split/split:21", "model_52/tf.nn.convolution_54/convolution/filter"], "device": "/device:CPU:0", "attr": {"padding": {"s": "U0FNRQ=="}, "data_format": {"s": "TkhXQw=="}, "use_cudnn_on_gpu": {"b": true}, "strides": {"list": {"i": ["1", "1", "1", "1"]}}, "T": {"type": "DT_FLOAT"}, "explicit_paddings": {"list": {}}, "dilations": {"list": {"i": ["1", "1", "1", "1"]}}}}, {"name": "model_52/tf.nn.convolution_55/convolution", "op": "Conv2D", "input": ["model_52/tf.split/split:22", "model_52/tf.nn.convolution_55/convolution/filter"], "device": "/device:CPU:0", "attr": {"padding": {"s": "U0FNRQ=="}, "data_format": {"s": "TkhXQw=="}, "use_cudnn_on_gpu": {"b": true}, "strides": {"list": {"i": ["1", "1", "1", "1"]}}, "T": {"type": "DT_FLOAT"}, "explicit_paddings": {"list": {}}, "dilations": {"list": {"i": ["1", "1", "1", "1"]}}}}, {"name": "model_52/tf.nn.convolution_56/convolution", "op": "Conv2D", "input": ["model_52/tf.split/split:23", "model_52/tf.nn.convolution_56/convolution/filter"], "device": "/device:CPU:0", "attr": {"padding": {"s": "U0FNRQ=="}, "data_format": {"s": "TkhXQw=="}, "use_cudnn_on_gpu": {"b": true}, "strides": {"list": {"i": ["1", "1", "1", "1"]}}, "T": {"type": "DT_FLOAT"}, "explicit_paddings": {"list": {}}, "dilations": {"list": {"i": ["1", "1", "1", "1"]}}}}, {"name": "model_52/tf.nn.convolution_57/convolution", "op": "Conv2D", "input": ["model_52/tf.split/split:24", "model_52/tf.nn.convolution_57/convolution/filter"], "device": "/device:CPU:0", "attr": {"padding": {"s": "U0FNRQ=="}, "data_format": {"s": "TkhXQw=="}, "strides": {"list": {"i": ["1", "1", "1", "1"]}}, "use_cudnn_on_gpu": {"b": true}, "T": {"type": "DT_FLOAT"}, "explicit_paddings": {"list": {}}, "dilations": {"list": {"i": ["1", "1", "1", "1"]}}}}, {"name": "model_52/tf.nn.convolution_58/convolution", "op": "Conv2D", "input": ["model_52/tf.split/split:25", "model_52/tf.nn.convolution_58/convolution/filter"], "device": "/device:CPU:0", "attr": {"padding": {"s": "U0FNRQ=="}, "data_format": {"s": "TkhXQw=="}, "use_cudnn_on_gpu": {"b": true}, "strides": {"list": {"i": ["1", "1", "1", "1"]}}, "T": {"type": "DT_FLOAT"}, "explicit_paddings": {"list": {}}, "dilations": {"list": {"i": ["1", "1", "1", "1"]}}}}, {"name": "model_52/tf.nn.convolution_59/convolution", "op": "Conv2D", "input": ["model_52/tf.split/split:26", "model_52/tf.nn.convolution_59/convolution/filter"], "device": "/device:CPU:0", "attr": {"padding": {"s": "U0FNRQ=="}, "data_format": {"s": "TkhXQw=="}, "use_cudnn_on_gpu": {"b": true}, "strides": {"list": {"i": ["1", "1", "1", "1"]}}, "T": {"type": "DT_FLOAT"}, "explicit_paddings": {"list": {}}, "dilations": {"list": {"i": ["1", "1", "1", "1"]}}}}, {"name": "model_52/tf.nn.convolution_60/convolution", "op": "Conv2D", "input": ["model_52/tf.split/split:27", "model_52/tf.nn.convolution_60/convolution/filter"], "device": "/device:CPU:0", "attr": {"padding": {"s": "U0FNRQ=="}, "data_format": {"s": "TkhXQw=="}, "strides": {"list": {"i": ["1", "1", "1", "1"]}}, "use_cudnn_on_gpu": {"b": true}, "T": {"type": "DT_FLOAT"}, "explicit_paddings": {"list": {}}, "dilations": {"list": {"i": ["1", "1", "1", "1"]}}}}, {"name": "model_52/tf.nn.convolution_61/convolution", "op": "Conv2D", "input": ["model_52/tf.split/split:28", "model_52/tf.nn.convolution_61/convolution/filter"], "device": "/device:CPU:0", "attr": {"padding": {"s": "U0FNRQ=="}, "data_format": {"s": "TkhXQw=="}, "use_cudnn_on_gpu": {"b": true}, "strides": {"list": {"i": ["1", "1", "1", "1"]}}, "T": {"type": "DT_FLOAT"}, "explicit_paddings": {"list": {}}, "dilations": {"list": {"i": ["1", "1", "1", "1"]}}}}, {"name": "model_52/tf.nn.convolution_62/convolution", "op": "Conv2D", "input": ["model_52/tf.split/split:29", "model_52/tf.nn.convolution_62/convolution/filter"], "device": "/device:CPU:0", "attr": {"padding": {"s": "U0FNRQ=="}, "data_format": {"s": "TkhXQw=="}, "strides": {"list": {"i": ["1", "1", "1", "1"]}}, "use_cudnn_on_gpu": {"b": true}, "T": {"type": "DT_FLOAT"}, "explicit_paddings": {"list": {}}, "dilations": {"list": {"i": ["1", "1", "1", "1"]}}}}, {"name": "model_52/tf.nn.convolution_63/convolution", "op": "Conv2D", "input": ["model_52/tf.split/split:30", "model_52/tf.nn.convolution_63/convolution/filter"], "device": "/device:CPU:0", "attr": {"padding": {"s": "U0FNRQ=="}, "data_format": {"s": "TkhXQw=="}, "strides": {"list": {"i": ["1", "1", "1", "1"]}}, "use_cudnn_on_gpu": {"b": true}, "T": {"type": "DT_FLOAT"}, "explicit_paddings": {"list": {}}, "dilations": {"list": {"i": ["1", "1", "1", "1"]}}}}, {"name": "model_52/tf.nn.convolution_64/convolution", "op": "Conv2D", "input": ["model_52/tf.split/split:31", "model_52/tf.nn.convolution_64/convolution/filter"], "device": "/device:CPU:0", "attr": {"padding": {"s": "U0FNRQ=="}, "data_format": {"s": "TkhXQw=="}, "strides": {"list": {"i": ["1", "1", "1", "1"]}}, "use_cudnn_on_gpu": {"b": true}, "T": {"type": "DT_FLOAT"}, "explicit_paddings": {"list": {}}, "dilations": {"list": {"i": ["1", "1", "1", "1"]}}}}, {"name": "model_52/tf.nn.convolution_65/convolution", "op": "Conv2D", "input": ["model_52/tf.split/split:32", "model_52/tf.nn.convolution_65/convolution/filter"], "device": "/device:CPU:0", "attr": {"padding": {"s": "U0FNRQ=="}, "data_format": {"s": "TkhXQw=="}, "strides": {"list": {"i": ["1", "1", "1", "1"]}}, "use_cudnn_on_gpu": {"b": true}, "T": {"type": "DT_FLOAT"}, "explicit_paddings": {"list": {}}, "dilations": {"list": {"i": ["1", "1", "1", "1"]}}}}, {"name": "model_52/tf.nn.convolution_66/convolution", "op": "Conv2D", "input": ["model_52/tf.split/split:33", "model_52/tf.nn.convolution_66/convolution/filter"], "device": "/device:CPU:0", "attr": {"padding": {"s": "U0FNRQ=="}, "data_format": {"s": "TkhXQw=="}, "use_cudnn_on_gpu": {"b": true}, "strides": {"list": {"i": ["1", "1", "1", "1"]}}, "T": {"type": "DT_FLOAT"}, "explicit_paddings": {"list": {}}, "dilations": {"list": {"i": ["1", "1", "1", "1"]}}}}, {"name": "model_52/tf.nn.convolution_67/convolution", "op": "Conv2D", "input": ["model_52/tf.split/split:34", "model_52/tf.nn.convolution_67/convolution/filter"], "device": "/device:CPU:0", "attr": {"padding": {"s": "U0FNRQ=="}, "data_format": {"s": "TkhXQw=="}, "use_cudnn_on_gpu": {"b": true}, "strides": {"list": {"i": ["1", "1", "1", "1"]}}, "T": {"type": "DT_FLOAT"}, "explicit_paddings": {"list": {}}, "dilations": {"list": {"i": ["1", "1", "1", "1"]}}}}, {"name": "model_52/tf.nn.convolution_68/convolution", "op": "Conv2D", "input": ["model_52/tf.split/split:35", "model_52/tf.nn.convolution_68/convolution/filter"], "device": "/device:CPU:0", "attr": {"padding": {"s": "U0FNRQ=="}, "data_format": {"s": "TkhXQw=="}, "strides": {"list": {"i": ["1", "1", "1", "1"]}}, "use_cudnn_on_gpu": {"b": true}, "T": {"type": "DT_FLOAT"}, "explicit_paddings": {"list": {}}, "dilations": {"list": {"i": ["1", "1", "1", "1"]}}}}, {"name": "model_52/tf.nn.convolution_69/convolution", "op": "Conv2D", "input": ["model_52/tf.split/split:36", "model_52/tf.nn.convolution_69/convolution/filter"], "device": "/device:CPU:0", "attr": {"padding": {"s": "U0FNRQ=="}, "data_format": {"s": "TkhXQw=="}, "strides": {"list": {"i": ["1", "1", "1", "1"]}}, "use_cudnn_on_gpu": {"b": true}, "T": {"type": "DT_FLOAT"}, "explicit_paddings": {"list": {}}, "dilations": {"list": {"i": ["1", "1", "1", "1"]}}}}, {"name": "model_52/tf.nn.convolution_70/convolution", "op": "Conv2D", "input": ["model_52/tf.split/split:37", "model_52/tf.nn.convolution_70/convolution/filter"], "device": "/device:CPU:0", "attr": {"padding": {"s": "U0FNRQ=="}, "data_format": {"s": "TkhXQw=="}, "use_cudnn_on_gpu": {"b": true}, "strides": {"list": {"i": ["1", "1", "1", "1"]}}, "T": {"type": "DT_FLOAT"}, "explicit_paddings": {"list": {}}, "dilations": {"list": {"i": ["1", "1", "1", "1"]}}}}, {"name": "model_52/tf.nn.convolution_71/convolution", "op": "Conv2D", "input": ["model_52/tf.split/split:38", "model_52/tf.nn.convolution_71/convolution/filter"], "device": "/device:CPU:0", "attr": {"padding": {"s": "U0FNRQ=="}, "data_format": {"s": "TkhXQw=="}, "strides": {"list": {"i": ["1", "1", "1", "1"]}}, "use_cudnn_on_gpu": {"b": true}, "T": {"type": "DT_FLOAT"}, "explicit_paddings": {"list": {}}, "dilations": {"list": {"i": ["1", "1", "1", "1"]}}}}, {"name": "model_52/tf.nn.convolution_72/convolution", "op": "Conv2D", "input": ["model_52/tf.split/split:39", "model_52/tf.nn.convolution_72/convolution/filter"], "device": "/device:CPU:0", "attr": {"padding": {"s": "U0FNRQ=="}, "data_format": {"s": "TkhXQw=="}, "strides": {"list": {"i": ["1", "1", "1", "1"]}}, "use_cudnn_on_gpu": {"b": true}, "T": {"type": "DT_FLOAT"}, "explicit_paddings": {"list": {}}, "dilations": {"list": {"i": ["1", "1", "1", "1"]}}}}, {"name": "model_52/tf.nn.convolution_73/convolution", "op": "Conv2D", "input": ["model_52/tf.split/split:40", "model_52/tf.nn.convolution_73/convolution/filter"], "device": "/device:CPU:0", "attr": {"padding": {"s": "U0FNRQ=="}, "data_format": {"s": "TkhXQw=="}, "strides": {"list": {"i": ["1", "1", "1", "1"]}}, "use_cudnn_on_gpu": {"b": true}, "T": {"type": "DT_FLOAT"}, "explicit_paddings": {"list": {}}, "dilations": {"list": {"i": ["1", "1", "1", "1"]}}}}, {"name": "model_52/tf.nn.convolution_74/convolution", "op": "Conv2D", "input": ["model_52/tf.split/split:41", "model_52/tf.nn.convolution_74/convolution/filter"], "device": "/device:CPU:0", "attr": {"padding": {"s": "U0FNRQ=="}, "data_format": {"s": "TkhXQw=="}, "strides": {"list": {"i": ["1", "1", "1", "1"]}}, "use_cudnn_on_gpu": {"b": true}, "T": {"type": "DT_FLOAT"}, "explicit_paddings": {"list": {}}, "dilations": {"list": {"i": ["1", "1", "1", "1"]}}}}, {"name": "model_52/tf.nn.convolution_75/convolution", "op": "Conv2D", "input": ["model_52/tf.split/split:42", "model_52/tf.nn.convolution_75/convolution/filter"], "device": "/device:CPU:0", "attr": {"padding": {"s": "U0FNRQ=="}, "data_format": {"s": "TkhXQw=="}, "strides": {"list": {"i": ["1", "1", "1", "1"]}}, "use_cudnn_on_gpu": {"b": true}, "T": {"type": "DT_FLOAT"}, "explicit_paddings": {"list": {}}, "dilations": {"list": {"i": ["1", "1", "1", "1"]}}}}, {"name": "model_52/tf.nn.convolution_76/convolution", "op": "Conv2D", "input": ["model_52/tf.split/split:43", "model_52/tf.nn.convolution_76/convolution/filter"], "device": "/device:CPU:0", "attr": {"padding": {"s": "U0FNRQ=="}, "data_format": {"s": "TkhXQw=="}, "strides": {"list": {"i": ["1", "1", "1", "1"]}}, "use_cudnn_on_gpu": {"b": true}, "T": {"type": "DT_FLOAT"}, "explicit_paddings": {"list": {}}, "dilations": {"list": {"i": ["1", "1", "1", "1"]}}}}, {"name": "model_52/tf.nn.convolution_77/convolution", "op": "Conv2D", "input": ["model_52/tf.split/split:44", "model_52/tf.nn.convolution_77/convolution/filter"], "device": "/device:CPU:0", "attr": {"padding": {"s": "U0FNRQ=="}, "data_format": {"s": "TkhXQw=="}, "use_cudnn_on_gpu": {"b": true}, "strides": {"list": {"i": ["1", "1", "1", "1"]}}, "T": {"type": "DT_FLOAT"}, "explicit_paddings": {"list": {}}, "dilations": {"list": {"i": ["1", "1", "1", "1"]}}}}, {"name": "model_52/tf.nn.convolution_78/convolution", "op": "Conv2D", "input": ["model_52/tf.split/split:45", "model_52/tf.nn.convolution_78/convolution/filter"], "device": "/device:CPU:0", "attr": {"padding": {"s": "U0FNRQ=="}, "data_format": {"s": "TkhXQw=="}, "use_cudnn_on_gpu": {"b": true}, "strides": {"list": {"i": ["1", "1", "1", "1"]}}, "T": {"type": "DT_FLOAT"}, "explicit_paddings": {"list": {}}, "dilations": {"list": {"i": ["1", "1", "1", "1"]}}}}, {"name": "model_52/tf.nn.convolution_79/convolution", "op": "Conv2D", "input": ["model_52/tf.split/split:46", "model_52/tf.nn.convolution_79/convolution/filter"], "device": "/device:CPU:0", "attr": {"padding": {"s": "U0FNRQ=="}, "data_format": {"s": "TkhXQw=="}, "strides": {"list": {"i": ["1", "1", "1", "1"]}}, "use_cudnn_on_gpu": {"b": true}, "T": {"type": "DT_FLOAT"}, "explicit_paddings": {"list": {}}, "dilations": {"list": {"i": ["1", "1", "1", "1"]}}}}, {"name": "model_52/tf.nn.convolution_80/convolution", "op": "Conv2D", "input": ["model_52/tf.split/split:47", "model_52/tf.nn.convolution_80/convolution/filter"], "device": "/device:CPU:0", "attr": {"padding": {"s": "U0FNRQ=="}, "data_format": {"s": "TkhXQw=="}, "use_cudnn_on_gpu": {"b": true}, "strides": {"list": {"i": ["1", "1", "1", "1"]}}, "T": {"type": "DT_FLOAT"}, "explicit_paddings": {"list": {}}, "dilations": {"list": {"i": ["1", "1", "1", "1"]}}}}, {"name": "model_52/tf.nn.convolution_81/convolution", "op": "Conv2D", "input": ["model_52/tf.split/split:48", "model_52/tf.nn.convolution_81/convolution/filter"], "device": "/device:CPU:0", "attr": {"padding": {"s": "U0FNRQ=="}, "data_format": {"s": "TkhXQw=="}, "use_cudnn_on_gpu": {"b": true}, "strides": {"list": {"i": ["1", "1", "1", "1"]}}, "T": {"type": "DT_FLOAT"}, "explicit_paddings": {"list": {}}, "dilations": {"list": {"i": ["1", "1", "1", "1"]}}}}, {"name": "model_52/tf.nn.convolution_82/convolution", "op": "Conv2D", "input": ["model_52/tf.split/split:49", "model_52/tf.nn.convolution_82/convolution/filter"], "device": "/device:CPU:0", "attr": {"padding": {"s": "U0FNRQ=="}, "data_format": {"s": "TkhXQw=="}, "use_cudnn_on_gpu": {"b": true}, "strides": {"list": {"i": ["1", "1", "1", "1"]}}, "T": {"type": "DT_FLOAT"}, "explicit_paddings": {"list": {}}, "dilations": {"list": {"i": ["1", "1", "1", "1"]}}}}, {"name": "model_52/tf.nn.convolution_83/convolution", "op": "Conv2D", "input": ["model_52/tf.split/split:50", "model_52/tf.nn.convolution_83/convolution/filter"], "device": "/device:CPU:0", "attr": {"padding": {"s": "U0FNRQ=="}, "data_format": {"s": "TkhXQw=="}, "strides": {"list": {"i": ["1", "1", "1", "1"]}}, "use_cudnn_on_gpu": {"b": true}, "T": {"type": "DT_FLOAT"}, "explicit_paddings": {"list": {}}, "dilations": {"list": {"i": ["1", "1", "1", "1"]}}}}, {"name": "model_52/tf.nn.convolution_84/convolution", "op": "Conv2D", "input": ["model_52/tf.split/split:51", "model_52/tf.nn.convolution_84/convolution/filter"], "device": "/device:CPU:0", "attr": {"padding": {"s": "U0FNRQ=="}, "data_format": {"s": "TkhXQw=="}, "strides": {"list": {"i": ["1", "1", "1", "1"]}}, "use_cudnn_on_gpu": {"b": true}, "T": {"type": "DT_FLOAT"}, "explicit_paddings": {"list": {}}, "dilations": {"list": {"i": ["1", "1", "1", "1"]}}}}, {"name": "model_52/tf.nn.convolution_85/convolution", "op": "Conv2D", "input": ["model_52/tf.split/split:52", "model_52/tf.nn.convolution_85/convolution/filter"], "device": "/device:CPU:0", "attr": {"padding": {"s": "U0FNRQ=="}, "data_format": {"s": "TkhXQw=="}, "use_cudnn_on_gpu": {"b": true}, "strides": {"list": {"i": ["1", "1", "1", "1"]}}, "T": {"type": "DT_FLOAT"}, "explicit_paddings": {"list": {}}, "dilations": {"list": {"i": ["1", "1", "1", "1"]}}}}, {"name": "model_52/tf.nn.convolution_86/convolution", "op": "Conv2D", "input": ["model_52/tf.split/split:53", "model_52/tf.nn.convolution_86/convolution/filter"], "device": "/device:CPU:0", "attr": {"padding": {"s": "U0FNRQ=="}, "data_format": {"s": "TkhXQw=="}, "use_cudnn_on_gpu": {"b": true}, "strides": {"list": {"i": ["1", "1", "1", "1"]}}, "T": {"type": "DT_FLOAT"}, "explicit_paddings": {"list": {}}, "dilations": {"list": {"i": ["1", "1", "1", "1"]}}}}, {"name": "model_52/tf.nn.convolution_87/convolution", "op": "Conv2D", "input": ["model_52/tf.split/split:54", "model_52/tf.nn.convolution_87/convolution/filter"], "device": "/device:CPU:0", "attr": {"padding": {"s": "U0FNRQ=="}, "data_format": {"s": "TkhXQw=="}, "strides": {"list": {"i": ["1", "1", "1", "1"]}}, "use_cudnn_on_gpu": {"b": true}, "T": {"type": "DT_FLOAT"}, "explicit_paddings": {"list": {}}, "dilations": {"list": {"i": ["1", "1", "1", "1"]}}}}, {"name": "model_52/tf.nn.convolution_88/convolution", "op": "Conv2D", "input": ["model_52/tf.split/split:55", "model_52/tf.nn.convolution_88/convolution/filter"], "device": "/device:CPU:0", "attr": {"padding": {"s": "U0FNRQ=="}, "data_format": {"s": "TkhXQw=="}, "strides": {"list": {"i": ["1", "1", "1", "1"]}}, "use_cudnn_on_gpu": {"b": true}, "T": {"type": "DT_FLOAT"}, "explicit_paddings": {"list": {}}, "dilations": {"list": {"i": ["1", "1", "1", "1"]}}}}, {"name": "model_52/tf.nn.convolution_89/convolution", "op": "Conv2D", "input": ["model_52/tf.split/split:56", "model_52/tf.nn.convolution_89/convolution/filter"], "device": "/device:CPU:0", "attr": {"padding": {"s": "U0FNRQ=="}, "data_format": {"s": "TkhXQw=="}, "use_cudnn_on_gpu": {"b": true}, "strides": {"list": {"i": ["1", "1", "1", "1"]}}, "T": {"type": "DT_FLOAT"}, "explicit_paddings": {"list": {}}, "dilations": {"list": {"i": ["1", "1", "1", "1"]}}}}, {"name": "model_52/tf.nn.convolution_90/convolution", "op": "Conv2D", "input": ["model_52/tf.split/split:57", "model_52/tf.nn.convolution_90/convolution/filter"], "device": "/device:CPU:0", "attr": {"padding": {"s": "U0FNRQ=="}, "data_format": {"s": "TkhXQw=="}, "use_cudnn_on_gpu": {"b": true}, "strides": {"list": {"i": ["1", "1", "1", "1"]}}, "T": {"type": "DT_FLOAT"}, "explicit_paddings": {"list": {}}, "dilations": {"list": {"i": ["1", "1", "1", "1"]}}}}, {"name": "model_52/tf.nn.convolution_91/convolution", "op": "Conv2D", "input": ["model_52/tf.split/split:58", "model_52/tf.nn.convolution_91/convolution/filter"], "device": "/device:CPU:0", "attr": {"padding": {"s": "U0FNRQ=="}, "data_format": {"s": "TkhXQw=="}, "use_cudnn_on_gpu": {"b": true}, "strides": {"list": {"i": ["1", "1", "1", "1"]}}, "T": {"type": "DT_FLOAT"}, "explicit_paddings": {"list": {}}, "dilations": {"list": {"i": ["1", "1", "1", "1"]}}}}, {"name": "model_52/tf.nn.convolution_92/convolution", "op": "Conv2D", "input": ["model_52/tf.split/split:59", "model_52/tf.nn.convolution_92/convolution/filter"], "device": "/device:CPU:0", "attr": {"padding": {"s": "U0FNRQ=="}, "data_format": {"s": "TkhXQw=="}, "use_cudnn_on_gpu": {"b": true}, "strides": {"list": {"i": ["1", "1", "1", "1"]}}, "T": {"type": "DT_FLOAT"}, "explicit_paddings": {"list": {}}, "dilations": {"list": {"i": ["1", "1", "1", "1"]}}}}, {"name": "model_52/tf.nn.convolution_93/convolution", "op": "Conv2D", "input": ["model_52/tf.split/split:60", "model_52/tf.nn.convolution_93/convolution/filter"], "device": "/device:CPU:0", "attr": {"padding": {"s": "U0FNRQ=="}, "data_format": {"s": "TkhXQw=="}, "use_cudnn_on_gpu": {"b": true}, "strides": {"list": {"i": ["1", "1", "1", "1"]}}, "T": {"type": "DT_FLOAT"}, "explicit_paddings": {"list": {}}, "dilations": {"list": {"i": ["1", "1", "1", "1"]}}}}, {"name": "model_52/tf.nn.convolution_94/convolution", "op": "Conv2D", "input": ["model_52/tf.split/split:61", "model_52/tf.nn.convolution_94/convolution/filter"], "device": "/device:CPU:0", "attr": {"padding": {"s": "U0FNRQ=="}, "data_format": {"s": "TkhXQw=="}, "use_cudnn_on_gpu": {"b": true}, "strides": {"list": {"i": ["1", "1", "1", "1"]}}, "T": {"type": "DT_FLOAT"}, "explicit_paddings": {"list": {}}, "dilations": {"list": {"i": ["1", "1", "1", "1"]}}}}, {"name": "model_52/tf.nn.convolution_95/convolution", "op": "Conv2D", "input": ["model_52/tf.split/split:62", "model_52/tf.nn.convolution_95/convolution/filter"], "device": "/device:CPU:0", "attr": {"padding": {"s": "U0FNRQ=="}, "data_format": {"s": "TkhXQw=="}, "strides": {"list": {"i": ["1", "1", "1", "1"]}}, "use_cudnn_on_gpu": {"b": true}, "T": {"type": "DT_FLOAT"}, "explicit_paddings": {"list": {}}, "dilations": {"list": {"i": ["1", "1", "1", "1"]}}}}, {"name": "model_52/tf.nn.convolution_96/convolution", "op": "Conv2D", "input": ["model_52/tf.split/split:63", "model_52/tf.nn.convolution_96/convolution/filter"], "device": "/device:CPU:0", "attr": {"padding": {"s": "U0FNRQ=="}, "data_format": {"s": "TkhXQw=="}, "use_cudnn_on_gpu": {"b": true}, "strides": {"list": {"i": ["1", "1", "1", "1"]}}, "T": {"type": "DT_FLOAT"}, "explicit_paddings": {"list": {}}, "dilations": {"list": {"i": ["1", "1", "1", "1"]}}}}, {"name": "model_52/tf.nn.convolution_97/convolution", "op": "Conv2D", "input": ["model_52/tf.split/split:64", "model_52/tf.nn.convolution_97/convolution/filter"], "device": "/device:CPU:0", "attr": {"padding": {"s": "U0FNRQ=="}, "data_format": {"s": "TkhXQw=="}, "strides": {"list": {"i": ["1", "1", "1", "1"]}}, "use_cudnn_on_gpu": {"b": true}, "T": {"type": "DT_FLOAT"}, "explicit_paddings": {"list": {}}, "dilations": {"list": {"i": ["1", "1", "1", "1"]}}}}, {"name": "model_52/tf.nn.convolution_98/convolution", "op": "Conv2D", "input": ["model_52/tf.split/split:65", "model_52/tf.nn.convolution_98/convolution/filter"], "device": "/device:CPU:0", "attr": {"padding": {"s": "U0FNRQ=="}, "data_format": {"s": "TkhXQw=="}, "use_cudnn_on_gpu": {"b": true}, "strides": {"list": {"i": ["1", "1", "1", "1"]}}, "T": {"type": "DT_FLOAT"}, "explicit_paddings": {"list": {}}, "dilations": {"list": {"i": ["1", "1", "1", "1"]}}}}, {"name": "model_52/tf.nn.convolution_99/convolution", "op": "Conv2D", "input": ["model_52/tf.split/split:66", "model_52/tf.nn.convolution_99/convolution/filter"], "device": "/device:CPU:0", "attr": {"padding": {"s": "U0FNRQ=="}, "data_format": {"s": "TkhXQw=="}, "use_cudnn_on_gpu": {"b": true}, "strides": {"list": {"i": ["1", "1", "1", "1"]}}, "T": {"type": "DT_FLOAT"}, "explicit_paddings": {"list": {}}, "dilations": {"list": {"i": ["1", "1", "1", "1"]}}}}, {"name": "model_52/tf.nn.convolution_100/convolution", "op": "Conv2D", "input": ["model_52/tf.split/split:67", "model_52/tf.nn.convolution_100/convolution/filter"], "device": "/device:CPU:0", "attr": {"padding": {"s": "U0FNRQ=="}, "data_format": {"s": "TkhXQw=="}, "strides": {"list": {"i": ["1", "1", "1", "1"]}}, "use_cudnn_on_gpu": {"b": true}, "T": {"type": "DT_FLOAT"}, "explicit_paddings": {"list": {}}, "dilations": {"list": {"i": ["1", "1", "1", "1"]}}}}, {"name": "model_52/tf.nn.convolution_101/convolution", "op": "Conv2D", "input": ["model_52/tf.split/split:68", "model_52/tf.nn.convolution_101/convolution/filter"], "device": "/device:CPU:0", "attr": {"padding": {"s": "U0FNRQ=="}, "data_format": {"s": "TkhXQw=="}, "strides": {"list": {"i": ["1", "1", "1", "1"]}}, "use_cudnn_on_gpu": {"b": true}, "T": {"type": "DT_FLOAT"}, "explicit_paddings": {"list": {}}, "dilations": {"list": {"i": ["1", "1", "1", "1"]}}}}, {"name": "model_52/tf.nn.convolution_102/convolution", "op": "Conv2D", "input": ["model_52/tf.split/split:69", "model_52/tf.nn.convolution_102/convolution/filter"], "device": "/device:CPU:0", "attr": {"padding": {"s": "U0FNRQ=="}, "data_format": {"s": "TkhXQw=="}, "strides": {"list": {"i": ["1", "1", "1", "1"]}}, "use_cudnn_on_gpu": {"b": true}, "T": {"type": "DT_FLOAT"}, "explicit_paddings": {"list": {}}, "dilations": {"list": {"i": ["1", "1", "1", "1"]}}}}, {"name": "model_52/tf.nn.convolution_103/convolution", "op": "Conv2D", "input": ["model_52/tf.split/split:70", "model_52/tf.nn.convolution_103/convolution/filter"], "device": "/device:CPU:0", "attr": {"padding": {"s": "U0FNRQ=="}, "data_format": {"s": "TkhXQw=="}, "use_cudnn_on_gpu": {"b": true}, "strides": {"list": {"i": ["1", "1", "1", "1"]}}, "T": {"type": "DT_FLOAT"}, "explicit_paddings": {"list": {}}, "dilations": {"list": {"i": ["1", "1", "1", "1"]}}}}, {"name": "model_52/tf.nn.convolution_104/convolution", "op": "Conv2D", "input": ["model_52/tf.split/split:71", "model_52/tf.nn.convolution_104/convolution/filter"], "device": "/device:CPU:0", "attr": {"padding": {"s": "U0FNRQ=="}, "data_format": {"s": "TkhXQw=="}, "use_cudnn_on_gpu": {"b": true}, "strides": {"list": {"i": ["1", "1", "1", "1"]}}, "T": {"type": "DT_FLOAT"}, "explicit_paddings": {"list": {}}, "dilations": {"list": {"i": ["1", "1", "1", "1"]}}}}, {"name": "model_52/tf.nn.convolution_105/convolution", "op": "Conv2D", "input": ["model_52/tf.split/split:72", "model_52/tf.nn.convolution_105/convolution/filter"], "device": "/device:CPU:0", "attr": {"padding": {"s": "U0FNRQ=="}, "data_format": {"s": "TkhXQw=="}, "use_cudnn_on_gpu": {"b": true}, "strides": {"list": {"i": ["1", "1", "1", "1"]}}, "T": {"type": "DT_FLOAT"}, "explicit_paddings": {"list": {}}, "dilations": {"list": {"i": ["1", "1", "1", "1"]}}}}, {"name": "model_52/tf.nn.convolution_106/convolution", "op": "Conv2D", "input": ["model_52/tf.split/split:73", "model_52/tf.nn.convolution_106/convolution/filter"], "device": "/device:CPU:0", "attr": {"padding": {"s": "U0FNRQ=="}, "data_format": {"s": "TkhXQw=="}, "strides": {"list": {"i": ["1", "1", "1", "1"]}}, "use_cudnn_on_gpu": {"b": true}, "T": {"type": "DT_FLOAT"}, "explicit_paddings": {"list": {}}, "dilations": {"list": {"i": ["1", "1", "1", "1"]}}}}, {"name": "model_52/tf.nn.convolution_107/convolution", "op": "Conv2D", "input": ["model_52/tf.split/split:74", "model_52/tf.nn.convolution_107/convolution/filter"], "device": "/device:CPU:0", "attr": {"padding": {"s": "U0FNRQ=="}, "data_format": {"s": "TkhXQw=="}, "strides": {"list": {"i": ["1", "1", "1", "1"]}}, "use_cudnn_on_gpu": {"b": true}, "T": {"type": "DT_FLOAT"}, "explicit_paddings": {"list": {}}, "dilations": {"list": {"i": ["1", "1", "1", "1"]}}}}, {"name": "model_52/tf.nn.convolution_108/convolution", "op": "Conv2D", "input": ["model_52/tf.split/split:75", "model_52/tf.nn.convolution_108/convolution/filter"], "device": "/device:CPU:0", "attr": {"padding": {"s": "U0FNRQ=="}, "data_format": {"s": "TkhXQw=="}, "strides": {"list": {"i": ["1", "1", "1", "1"]}}, "use_cudnn_on_gpu": {"b": true}, "T": {"type": "DT_FLOAT"}, "explicit_paddings": {"list": {}}, "dilations": {"list": {"i": ["1", "1", "1", "1"]}}}}, {"name": "model_52/tf.nn.convolution_109/convolution", "op": "Conv2D", "input": ["model_52/tf.split/split:76", "model_52/tf.nn.convolution_109/convolution/filter"], "device": "/device:CPU:0", "attr": {"padding": {"s": "U0FNRQ=="}, "data_format": {"s": "TkhXQw=="}, "use_cudnn_on_gpu": {"b": true}, "strides": {"list": {"i": ["1", "1", "1", "1"]}}, "T": {"type": "DT_FLOAT"}, "explicit_paddings": {"list": {}}, "dilations": {"list": {"i": ["1", "1", "1", "1"]}}}}, {"name": "model_52/tf.nn.convolution_110/convolution", "op": "Conv2D", "input": ["model_52/tf.split/split:77", "model_52/tf.nn.convolution_110/convolution/filter"], "device": "/device:CPU:0", "attr": {"padding": {"s": "U0FNRQ=="}, "data_format": {"s": "TkhXQw=="}, "use_cudnn_on_gpu": {"b": true}, "strides": {"list": {"i": ["1", "1", "1", "1"]}}, "T": {"type": "DT_FLOAT"}, "explicit_paddings": {"list": {}}, "dilations": {"list": {"i": ["1", "1", "1", "1"]}}}}, {"name": "model_52/tf.nn.convolution_111/convolution", "op": "Conv2D", "input": ["model_52/tf.split/split:78", "model_52/tf.nn.convolution_111/convolution/filter"], "device": "/device:CPU:0", "attr": {"padding": {"s": "U0FNRQ=="}, "data_format": {"s": "TkhXQw=="}, "strides": {"list": {"i": ["1", "1", "1", "1"]}}, "use_cudnn_on_gpu": {"b": true}, "T": {"type": "DT_FLOAT"}, "explicit_paddings": {"list": {}}, "dilations": {"list": {"i": ["1", "1", "1", "1"]}}}}, {"name": "model_52/tf.nn.convolution_112/convolution", "op": "Conv2D", "input": ["model_52/tf.split/split:79", "model_52/tf.nn.convolution_112/convolution/filter"], "device": "/device:CPU:0", "attr": {"padding": {"s": "U0FNRQ=="}, "data_format": {"s": "TkhXQw=="}, "use_cudnn_on_gpu": {"b": true}, "strides": {"list": {"i": ["1", "1", "1", "1"]}}, "T": {"type": "DT_FLOAT"}, "explicit_paddings": {"list": {}}, "dilations": {"list": {"i": ["1", "1", "1", "1"]}}}}, {"name": "model_52/tf.nn.convolution_113/convolution", "op": "Conv2D", "input": ["model_52/tf.split/split:80", "model_52/tf.nn.convolution_113/convolution/filter"], "device": "/device:CPU:0", "attr": {"padding": {"s": "U0FNRQ=="}, "data_format": {"s": "TkhXQw=="}, "use_cudnn_on_gpu": {"b": true}, "strides": {"list": {"i": ["1", "1", "1", "1"]}}, "T": {"type": "DT_FLOAT"}, "explicit_paddings": {"list": {}}, "dilations": {"list": {"i": ["1", "1", "1", "1"]}}}}, {"name": "model_52/tf.nn.convolution_114/convolution", "op": "Conv2D", "input": ["model_52/tf.split/split:81", "model_52/tf.nn.convolution_114/convolution/filter"], "device": "/device:CPU:0", "attr": {"padding": {"s": "U0FNRQ=="}, "data_format": {"s": "TkhXQw=="}, "strides": {"list": {"i": ["1", "1", "1", "1"]}}, "use_cudnn_on_gpu": {"b": true}, "T": {"type": "DT_FLOAT"}, "explicit_paddings": {"list": {}}, "dilations": {"list": {"i": ["1", "1", "1", "1"]}}}}, {"name": "model_52/tf.nn.convolution_115/convolution", "op": "Conv2D", "input": ["model_52/tf.split/split:82", "model_52/tf.nn.convolution_115/convolution/filter"], "device": "/device:CPU:0", "attr": {"padding": {"s": "U0FNRQ=="}, "data_format": {"s": "TkhXQw=="}, "use_cudnn_on_gpu": {"b": true}, "strides": {"list": {"i": ["1", "1", "1", "1"]}}, "T": {"type": "DT_FLOAT"}, "explicit_paddings": {"list": {}}, "dilations": {"list": {"i": ["1", "1", "1", "1"]}}}}, {"name": "model_52/tf.nn.convolution_116/convolution", "op": "Conv2D", "input": ["model_52/tf.split/split:83", "model_52/tf.nn.convolution_116/convolution/filter"], "device": "/device:CPU:0", "attr": {"padding": {"s": "U0FNRQ=="}, "data_format": {"s": "TkhXQw=="}, "strides": {"list": {"i": ["1", "1", "1", "1"]}}, "use_cudnn_on_gpu": {"b": true}, "T": {"type": "DT_FLOAT"}, "explicit_paddings": {"list": {}}, "dilations": {"list": {"i": ["1", "1", "1", "1"]}}}}, {"name": "model_52/tf.nn.convolution_117/convolution", "op": "Conv2D", "input": ["model_52/tf.split/split:84", "model_52/tf.nn.convolution_117/convolution/filter"], "device": "/device:CPU:0", "attr": {"padding": {"s": "U0FNRQ=="}, "data_format": {"s": "TkhXQw=="}, "use_cudnn_on_gpu": {"b": true}, "strides": {"list": {"i": ["1", "1", "1", "1"]}}, "T": {"type": "DT_FLOAT"}, "explicit_paddings": {"list": {}}, "dilations": {"list": {"i": ["1", "1", "1", "1"]}}}}, {"name": "model_52/tf.nn.convolution_118/convolution", "op": "Conv2D", "input": ["model_52/tf.split/split:85", "model_52/tf.nn.convolution_118/convolution/filter"], "device": "/device:CPU:0", "attr": {"padding": {"s": "U0FNRQ=="}, "data_format": {"s": "TkhXQw=="}, "use_cudnn_on_gpu": {"b": true}, "strides": {"list": {"i": ["1", "1", "1", "1"]}}, "T": {"type": "DT_FLOAT"}, "explicit_paddings": {"list": {}}, "dilations": {"list": {"i": ["1", "1", "1", "1"]}}}}, {"name": "model_52/tf.nn.convolution_119/convolution", "op": "Conv2D", "input": ["model_52/tf.split/split:86", "model_52/tf.nn.convolution_119/convolution/filter"], "device": "/device:CPU:0", "attr": {"padding": {"s": "U0FNRQ=="}, "data_format": {"s": "TkhXQw=="}, "use_cudnn_on_gpu": {"b": true}, "strides": {"list": {"i": ["1", "1", "1", "1"]}}, "T": {"type": "DT_FLOAT"}, "explicit_paddings": {"list": {}}, "dilations": {"list": {"i": ["1", "1", "1", "1"]}}}}, {"name": "model_52/tf.nn.convolution_120/convolution", "op": "Conv2D", "input": ["model_52/tf.split/split:87", "model_52/tf.nn.convolution_120/convolution/filter"], "device": "/device:CPU:0", "attr": {"padding": {"s": "U0FNRQ=="}, "data_format": {"s": "TkhXQw=="}, "strides": {"list": {"i": ["1", "1", "1", "1"]}}, "use_cudnn_on_gpu": {"b": true}, "T": {"type": "DT_FLOAT"}, "explicit_paddings": {"list": {}}, "dilations": {"list": {"i": ["1", "1", "1", "1"]}}}}, {"name": "model_52/tf.nn.convolution_121/convolution", "op": "Conv2D", "input": ["model_52/tf.split/split:88", "model_52/tf.nn.convolution_121/convolution/filter"], "device": "/device:CPU:0", "attr": {"padding": {"s": "U0FNRQ=="}, "data_format": {"s": "TkhXQw=="}, "use_cudnn_on_gpu": {"b": true}, "strides": {"list": {"i": ["1", "1", "1", "1"]}}, "T": {"type": "DT_FLOAT"}, "explicit_paddings": {"list": {}}, "dilations": {"list": {"i": ["1", "1", "1", "1"]}}}}, {"name": "model_52/tf.nn.convolution_122/convolution", "op": "Conv2D", "input": ["model_52/tf.split/split:89", "model_52/tf.nn.convolution_122/convolution/filter"], "device": "/device:CPU:0", "attr": {"padding": {"s": "U0FNRQ=="}, "data_format": {"s": "TkhXQw=="}, "use_cudnn_on_gpu": {"b": true}, "strides": {"list": {"i": ["1", "1", "1", "1"]}}, "T": {"type": "DT_FLOAT"}, "explicit_paddings": {"list": {}}, "dilations": {"list": {"i": ["1", "1", "1", "1"]}}}}, {"name": "model_52/tf.nn.convolution_123/convolution", "op": "Conv2D", "input": ["model_52/tf.split/split:90", "model_52/tf.nn.convolution_123/convolution/filter"], "device": "/device:CPU:0", "attr": {"padding": {"s": "U0FNRQ=="}, "data_format": {"s": "TkhXQw=="}, "use_cudnn_on_gpu": {"b": true}, "strides": {"list": {"i": ["1", "1", "1", "1"]}}, "T": {"type": "DT_FLOAT"}, "explicit_paddings": {"list": {}}, "dilations":…
[3, 3, 1, 1], "dtype": "float32", "quantization": {"dtype": "uint8", "min": -0.25677725751610364, "scale": 0.0011361825553809896, "original_dtype": "float32"}}, {"name": "model_52/tf.nn.convolution_36/convolution/filter", "shape": [3, 3, 1, 1], "dtype": "float32", "quantization": {"dtype": "uint8", "min": -0.39784301870009475, "scale": 0.004277881921506395, "original_dtype": "float32"}}, {"name": "model_52/tf.nn.convolution_37/convolution/filter", "shape": [3, 3, 1, 1], "dtype": "float32", "quantization": {"dtype": "uint8", "min": -0.4292399530317269, "scale": 0.0021899997603659536, "original_dtype": "float32"}}, {"name": "model_52/tf.nn.convolution_38/convolution/filter", "shape": [3, 3, 1, 1], "dtype": "float32", "quantization": {"dtype": "uint8", "min": -0.14365498969221815, "scale": 0.0006441927788888706, "original_dtype": "float32"}}, {"name": "model_52/tf.nn.convolution_39/convolution/filter", "shape": [3, 3, 1, 1], "dtype": "float32", "quantization": {"dtype": "uint8", "min": -0.28391576683988756, "scale": 0.0012507302503959805, "original_dtype": "float32"}}, {"name": "model_52/tf.nn.convolution_40/convolution/filter", "shape": [3, 3, 1, 1], "dtype": "float32", "quantization": {"dtype": "uint8", "min": -0.14787984829322964, "scale": 0.0009242490518326853, "original_dtype": "float32"}}, {"name": "model_52/tf.nn.convolution_41/convolution/filter", "shape": [3, 3, 1, 1], "dtype": "float32", "quantization": {"dtype": "uint8", "min": -0.5049256436965045, "scale": 0.0064734056884167245, "original_dtype": "float32"}}, {"name": "model_52/tf.nn.convolution_42/convolution/filter", "shape": [3, 3, 1, 1], "dtype": "float32", "quantization": {"dtype": "uint8", "min": -0.30264191504786997, "scale": 0.0014208540612576054, "original_dtype": "float32"}}, {"name": "model_52/tf.nn.convolution_43/convolution/filter", "shape": [3, 3, 1, 1], "dtype": "float32", "quantization": {"dtype": "uint8", "min": -0.6465905049267937, "scale": 0.005526414572023878, "original_dtype": "float32"}}, {"name": "model_52/tf.nn.convolution_44/convolution/filter", "shape": [3, 3, 1, 1], "dtype": "float32", "quantization": {"dtype": "uint8", "min": -0.22559999440814935, "scale": 0.0009599999762048908, "original_dtype": "float32"}}, {"name": "model_52/tf.nn.convolution_45/convolution/filter", "shape": [3, 3, 1, 1], "dtype": "float32", "quantization": {"dtype": "uint8", "min": -0.34611828072982675, "scale": 0.0014604146866237415, "original_dtype": "float32"}}, {"name": "model_52/tf.nn.convolution_46/convolution/filter", "shape": [3, 3, 1, 1], "dtype": "float32", "quantization": {"dtype": "uint8", "min": -1.4499634445882312, "scale": 0.008285505397647035, "original_dtype": "float32"}}, {"name": "model_52/tf.nn.convolution_47/convolution/filter", "shape": [3, 3, 1, 1], "dtype": "float32", "quantization": {"dtype": "uint8", "min": -0.28492986366481465, "scale": 0.0011442966412241553, "original_dtype": "float32"}}, {"name": "model_52/tf.nn.convolution_48/convolution/filter", "shape": [3, 3, 1, 1], "dtype": "float32", "quantization": {"dtype": "uint8", "min": -0.32975221847129216, "scale": 0.0013190088738851686, "original_dtype": "float32"}}, {"name": "model_52/tf.nn.convolution_49/convolution/filter", "shape": [3, 3, 1, 1], "dtype": "float32", "quantization": {"dtype": "uint8", "min": -0.27258430368760056, "scale": 0.0013907362433040844, "original_dtype": "float32"}}, {"name": "model_52/tf.nn.convolution_50/convolution/filter", "shape": [3, 3, 1, 1], "dtype": "float32", "quantization": {"dtype": "uint8", "min": -0.2496326452486363, "scale": 0.0010358201047661257, "original_dtype": "float32"}}, {"name": "model_52/tf.nn.convolution_51/convolution/filter", "shape": [3, 3, 1, 1], "dtype": "float32", "quantization": {"dtype": "uint8", "min": -0.5722010279987372, "scale": 0.002737803961716446, "original_dtype": "float32"}}, {"name": "model_52/tf.nn.convolution_52/convolution/filter", "shape": [3, 3, 1, 1], "dtype": "float32", "quantization": {"dtype": "uint8", "min": -0.3075486235320568, "scale": 0.0013916227309142843, "original_dtype": "float32"}}, {"name": "model_52/tf.nn.convolution_53/convolution/filter", "shape": [3, 3, 1, 1], "dtype": "float32", "quantization": {"dtype": "uint8", "min": -0.21753008663654327, "scale": 0.0006805919841224072, "original_dtype": "float32"}}, {"name": "model_52/tf.nn.convolution_54/convolution/filter", "shape": [3, 3, 1, 1], "dtype": "float32", "quantization": {"dtype": "uint8", "min": -0.4253545929403866, "scale": 0.004726162143782073, "original_dtype": "float32"}}, {"name": "model_52/tf.nn.convolution_55/convolution/filter", "shape": [3, 3, 1, 1], "dtype": "float32", "quantization": {"dtype": "uint8", "min": -0.3489918540505802, "scale": 0.0017989270827349494, "original_dtype": "float32"}}, {"name": "model_52/tf.nn.convolution_56/convolution/filter", "shape": [3, 3, 1, 1], "dtype": "float32", "quantization": {"dtype": "uint8", "min": -0.7465654485365923, "scale": 0.008994764440199908, "original_dtype": "float32"}}, {"name": "model_52/tf.nn.convolution_57/convolution/filter", "shape": [3, 3, 1, 1], "dtype": "float32", "quantization": {"dtype": "uint8", "min": -0.32323549467266777, "scale": 0.0014115087103609945, "original_dtype": "float32"}}, {"name": "model_52/tf.nn.convolution_58/convolution/filter", "shape": [3, 3, 1, 1], "dtype": "float32", "quantization": {"dtype": "uint8", "min": -0.16364044073749992, "scale": 0.0007575946330439811, "original_dtype": "float32"}}, {"name": "model_52/tf.nn.convolution_59/convolution/filter", "shape": [3, 3, 1, 1], "dtype": "float32", "quantization": {"dtype": "uint8", "min": -1.2117267080381804, "scale": 0.013315678110309676, "original_dtype": "float32"}}, {"name": "model_52/tf.nn.convolution_60/convolution/filter", "shape": [3, 3, 1, 1], "dtype": "float32", "quantization": {"dtype": "uint8", "min": -0.2123450745992801, "scale": 0.0008702666991773774, "original_dtype": "float32"}}, {"name": "model_52/tf.nn.convolution_61/convolution/filter", "shape": [3, 3, 1, 1], "dtype": "float32", "quantization": {"dtype": "uint8", "min": -0.5893673896789551, "scale": 0.008667167495278752, "original_dtype": "float32"}}, {"name": "model_52/tf.nn.convolution_62/convolution/filter", "shape": [3, 3, 1, 1], "dtype": "float32", "quantization": {"dtype": "uint8", "min": -0.1752042919397354, "scale": 0.0005865744077691845, "original_dtype": "float32"}}, {"name": "model_52/tf.nn.convolution_63/convolution/filter", "shape": [3, 3, 1, 1], "dtype": "float32", "quantization": {"dtype": "uint8", "min": -2.0616468434240303, "scale": 0.01062704558465995, "original_dtype": "float32"}}, {"name": "model_52/tf.nn.convolution_64/convolution/filter", "shape": [3, 3, 1, 1], "dtype": "float32", "quantization": {"dtype": "uint8", "min": -0.1635771430225349, "scale": 0.0006703981271415364, "original_dtype": "float32"}}, {"name": "model_52/tf.nn.convolution_65/convolution/filter", "shape": [3, 3, 1, 1], "dtype": "float32", "quantization": {"dtype": "uint8", "min": -0.23087652847536053, "scale": 0.0009235061139014421, "original_dtype": "float32"}}, {"name": "model_52/tf.nn.convolution_66/convolution/filter", "shape": [3, 3, 1, 1], "dtype": "float32", "quantization": {"dtype": "uint8", "min": -0.34546942220014687, "scale": 0.0024501377461003324, "original_dtype": "float32"}}, {"name": "model_52/tf.nn.convolution_67/convolution/filter", "shape": [3, 3, 1, 1], "dtype": "float32", "quantization": {"dtype": "uint8", "min": -0.27483871579170227, "scale": 0.001047775490830342, "original_dtype": "float32"}}, {"name": "model_52/tf.nn.convolution_68/convolution/filter", "shape": [3, 3, 1, 1], "dtype": "float32", "quantization": {"dtype": "uint8", "min": -0.22208960719552695, "scale": 0.0013141396875474968, "original_dtype": "float32"}}, {"name": "model_52/tf.nn.convolution_69/convolution/filter", "shape": [3, 3, 1, 1], "dtype": "float32", "quantization": {"dtype": "uint8", "min": -0.45069679877921653, "scale": 0.001985448452771879, "original_dtype": "float32"}}, {"name": "model_52/tf.nn.convolution_70/convolution/filter", "shape": [3, 3, 1, 1], "dtype": "float32", "quantization": {"dtype": "uint8", "min": -0.2624360939889562, "scale": 0.0011768434708024941, "original_dtype": "float32"}}, {"name": "model_52/tf.nn.convolution_71/convolution/filter", "shape": [3, 3, 1, 1], "dtype": "float32", "quantization": {"dtype": "uint8", "min": -0.878652676414041, "scale": 0.006321242276360007, "original_dtype": "float32"}}, {"name": "model_52/tf.nn.convolution_72/convolution/filter", "shape": [3, 3, 1, 1], "dtype": "float32", "quantization": {"dtype": "uint8", "min": -0.2723500676014844, "scale": 0.003362346513598573, "original_dtype": "float32"}}, {"name": "model_52/tf.nn.convolution_73/convolution/filter", "shape": [3, 3, 1, 1], "dtype": "float32", "quantization": {"dtype": "uint8", "min": -0.9871724446614583, "scale": 0.00725862091662837, "original_dtype": "float32"}}, {"name": "model_52/tf.nn.convolution_74/convolution/filter", "shape": [3, 3, 1, 1], "dtype": "float32", "quantization": {"dtype": "uint8", "min": -0.44344552802104575, "scale": 0.002297645222906973, "original_dtype": "float32"}}, {"name": "model_52/tf.nn.convolution_75/convolution/filter", "shape": [3, 3, 1, 1], "dtype": "float32", "quantization": {"dtype": "uint8", "min": -0.1733679622411728, "scale": 0.0006258299720345759, "original_dtype": "float32"}}, {"name": "model_52/tf.nn.convolution_76/convolution/filter", "shape": [3, 3, 1, 1], "dtype": "float32", "quantization": {"dtype": "uint8", "min": -0.2699749788232878, "scale": 0.0012917463101592718, "original_dtype": "float32"}}, {"name": "model_52/tf.nn.convolution_77/convolution/filter", "shape": [3, 3, 1, 1], "dtype": "float32", "quantization": {"dtype": "uint8", "min": -0.2638293504714966, "scale": 0.0010256328848281912, "original_dtype": "float32"}}, {"name": "model_52/tf.nn.convolution_78/convolution/filter", "shape": [3, 3, 1, 1], "dtype": "float32", "quantization": {"dtype": "uint8", "min": -0.15876393020153046, "scale": 0.0006120968527872772, "original_dtype": "float32"}}, {"name": "model_52/tf.nn.convolution_79/convolution/filter", "shape": [3, 3, 1, 1], "dtype": "float32", "quantization": {"dtype": "uint8", "min": -0.394015583337522, "scale": 0.004925194791719025, "original_dtype": "float32"}}, {"name": "model_52/tf.nn.convolution_80/convolution/filter", "shape": [3, 3, 1, 1], "dtype": "float32", "quantization": {"dtype": "uint8", "min": -0.4026974483301826, "scale": 0.0018058181539470073, "original_dtype": "float32"}}, {"name": "model_52/tf.nn.convolution_81/convolution/filter", "shape": [3, 3, 1, 1], "dtype": "float32", "quantization": {"dtype": "uint8", "min": -0.3152003810174909, "scale": 0.0012865321674183302, "original_dtype": "float32"}}, {"name": "model_52/tf.nn.convolution_82/convolution/filter", "shape": [3, 3, 1, 1], "dtype": "float32", "quantization": {"dtype": "uint8", "min": -0.5583279763951021, "scale": 0.006203644182167801, "original_dtype": "float32"}}, {"name": "model_52/tf.nn.convolution_83/convolution/filter", "shape": [3, 3, 1, 1], "dtype": "float32", "quantization": {"dtype": "uint8", "min": -3.50027286679137, "scale": 0.04929961784213197, "original_dtype": "float32"}}, {"name": "model_52/tf.nn.convolution_84/convolution/filter", "shape": [3, 3, 1, 1], "dtype": "float32", "quantization": {"dtype": "uint8", "min": -0.11306609213352203, "scale": 0.00035346697504613913, "original_dtype": "float32"}}, {"name": "model_52/tf.nn.convolution_85/convolution/filter", "shape": [3, 3, 1, 1], "dtype": "float32", "quantization": {"dtype": "uint8", "min": -0.14709076400134055, "scale": 0.0005907259598447412, "original_dtype": "float32"}}, {"name": "model_52/tf.nn.convolution_86/convolution/filter", "shape": [3, 3, 1, 1], "dtype": "float32", "quantization": {"dtype": "uint8", "min": -0.4157401229820999, "scale": 0.00437621182086421, "original_dtype": "float32"}}, {"name": "model_52/tf.nn.convolution_87/convolution/filter", "shape": [3, 3, 1, 1], "dtype": "float32", "quantization": {"dtype": "uint8", "min": -0.5044834772745769, "scale": 0.0074188746658026, "original_dtype": "float32"}}, {"name": "model_52/tf.nn.convolution_88/convolution/filter", "shape": [3, 3, 1, 1], "dtype": "float32", "quantization": {"dtype": "uint8", "min": -0.1470610639628242, "scale": 0.000650712672401877, "original_dtype": "float32"}}, {"name": "model_52/tf.nn.convolution_89/convolution/filter", "shape": [3, 3, 1, 1], "dtype": "float32", "quantization": {"dtype": "uint8", "min": -0.49535056422738466, "scale": 0.00678562416749842, "original_dtype": "float32"}}, {"name": "model_52/tf.nn.convolution_90/convolution/filter", "shape": [3, 3, 1, 1], "dtype": "float32", "quantization": {"dtype": "uint8", "min": -0.7242402076721192, "scale": 0.01065059128929587, "original_dtype": "float32"}}, {"name": "model_52/tf.nn.convolution_91/convolution/filter", "shape": [3, 3, 1, 1], "dtype": "float32", "quantization": {"dtype": "uint8", "min": -0.442639607074214, "scale": 0.0042561500680212885, "original_dtype": "float32"}}, {"name": "model_52/tf.nn.convolution_92/convolution/filter", "shape": [3, 3, 1, 1], "dtype": "float32", "quantization": {"dtype": "uint8", "min": -0.6404500652762021, "scale": 0.005164919881259694, "original_dtype": "float32"}}, {"name": "model_52/tf.nn.convolution_93/convolution/filter", "shape": [3, 3, 1, 1], "dtype": "float32", "quantization": {"dtype": "uint8", "min": -0.1831525401449671, "scale": 0.0009440852584792119, "original_dtype": "float32"}}, {"name": "model_52/tf.nn.convolution_94/convolution/filter", "shape": [3, 3, 1, 1], "dtype": "float32", "quantization": {"dtype": "uint8", "min": -0.1999497254159959, "scale": 0.0008030109454457666, "original_dtype": "float32"}}, {"name": "model_52/tf.nn.convolution_95/convolution/filter", "shape": [3, 3, 1, 1], "dtype": "float32", "quantization": {"dtype": "uint8", "min": -0.12877482175827026, "scale": 0.00045275482915195763, "original_dtype": "float32"}}, {"name": "model_52/tf.nn.convolution_96/convolution/filter", "shape": [3, 3, 1, 1], "dtype": "float32", "quantization": {"dtype": "uint8", "min": -0.21678431361329323, "scale": 0.0027098039201661653, "original_dtype": "float32"}}, {"name": "model_52/tf.nn.convolution_97/convolution/filter", "shape": [3, 3, 1, 1], "dtype": "float32", "quantization": {"dtype": "uint8", "min": -0.3742850096786723, "scale": 0.004737784932641422, "original_dtype": "float32"}}, {"name": "model_52/tf.nn.convolution_98/convolution/filter", "shape": [3, 3, 1, 1], "dtype": "float32", "quantization": {"dtype": "uint8", "min": -0.3743618474908027, "scale": 0.0015280075407787866, "original_dtype": "float32"}}, {"name": "model_52/tf.nn.convolution_99/convolution/filter", "shape": [3, 3, 1, 1], "dtype": "float32", "quantization": {"dtype": "uint8", "min": -0.11988945685180963, "scale": 0.0011310326118095248, "original_dtype": "float32"}}, {"name": "model_52/tf.nn.convolution_100/convolution/filter", "shape": [3, 3, 1, 1], "dtype": "float32", "quantization": {"dtype": "uint8", "min": -0.26824717802159925, "scale": 0.0013971207188624962, "original_dtype": "float32"}}, {"name": "model_52/tf.nn.convolution_101/convolution/filter", "shape": [3, 3, 1, 1], "dtype": "float32", "quantization": {"dtype": "uint8", "min": -0.8075236411655651, "scale": 0.012817835574056588, "original_dtype": "float32"}}, {"name": "model_52/tf.nn.convolution_102/convolution/filter", "shape": [3, 3, 1, 1], "dtype": "float32", "quantization": {"dtype": "uint8", "min": -0.05879215145958405, "scale": 0.0003046225464227153, "original_dtype": "float32"}}, {"name": "model_52/tf.nn.convolution_103/convolution/filter", "shape": [3, 3, 1, 1], "dtype": "float32", "quantization": {"dtype": "uint8", "min": -0.8375210537629969, "scale": 0.012689712935802983, "original_dtype": "float32"}}, {"name": "model_52/tf.nn.convolution_104/convolution/filter", "shape": [3, 3, 1, 1], "dtype": "float32", "quantization": {"dtype": "uint8", "min": -0.22428041696548462, "scale": 0.000735892793711494, "original_dtype": "float32"}}, {"name": "model_52/tf.nn.convolution_105/convolution/filter", "shape": [3, 3, 1, 1], "dtype": "float32", "quantization": {"dtype": "uint8", "min": -1.170626072322621, "scale": 0.021284110405865836, "original_dtype": "float32"}}, {"name": "model_52/tf.nn.convolution_106/convolution/filter", "shape": [3, 3, 1, 1], "dtype": "float32", "quantization": {"dtype": "uint8", "min": -0.5831677007908914, "scale": 0.002650762276322234, "original_dtype": "float32"}}, {"name": "model_52/tf.nn.convolution_107/convolution/filter", "shape": [3, 3, 1, 1], "dtype": "float32", "quantization": {"dtype": "uint8", "min": -0.8634120436275706, "scale": 0.015989111919029086, "original_dtype": "float32"}}, {"name": "model_52/tf.nn.convolution_108/convolution/filter", "shape": [3, 3, 1, 1], "dtype": "float32", "quantization": {"dtype": "uint8", "min": -0.08814898878335953, "scale": 0.00024705635858517067, "original_dtype": "float32"}}, {"name": "model_52/tf.nn.convolution_109/convolution/filter", "shape": [3, 3, 1, 1], "dtype": "float32", "quantization": {"dtype": "uint8", "min": -0.09374210238456726, "scale": 0.00033371619441929985, "original_dtype": "float32"}}, {"name": "model_52/tf.nn.convolution_110/convolution/filter", "shape": [3, 3, 1, 1], "dtype": "float32", "quantization": {"dtype": "uint8", "min": -0.6463326573371888, "scale": 0.0029922808210055035, "original_dtype": "float32"}}, {"name": "model_52/tf.nn.convolution_111/convolution/filter", "shape": [3, 3, 1, 1], "dtype": "float32", "quantization": {"dtype": "uint8", "min": -0.35110954396864946, "scale": 0.004179875523436303, "original_dtype": "float32"}}, {"name": "model_52/tf.nn.convolution_112/convolution/filter", "shape": [3, 3, 1, 1], "dtype": "float32", "quantization": {"dtype": "uint8", "min": -0.37612101610969095, "scale": 0.0052239030015234856, "original_dtype": "float32"}}, {"name": "model_52/tf.nn.convolution_113/convolution/filter", "shape": [3, 3, 1, 1], "dtype": "float32", "quantization": {"dtype": "uint8", "min": -0.3607165542303347, "scale": 0.0034684284060609106, "original_dtype": "float32"}}, {"name": "model_52/tf.nn.convolution_114/convolution/filter", "shape": [3, 3, 1, 1], "dtype": "float32", "quantization": {"dtype": "uint8", "min": -0.10098561171223136, "scale": 0.0005579315564211677, "original_dtype": "float32"}}, {"name": "model_52/tf.nn.convolution_115/convolution/filter", "shape": [3, 3, 1, 1], "dtype": "float32", "quantization": {"dtype": "uint8", "min": -0.1013062447309494, "scale": 0.00023828145920061597, "original_dtype": "float32"}}, {"name": "model_52/tf.nn.convolution_116/convolution/filter", "shape": [3, 3, 1, 1], "dtype": "float32", "quantization": {"dtype": "uint8", "min": -0.13789430260658264, "scale": 0.0004603226176079582, "original_dtype": "float32"}}, {"name": "model_52/tf.nn.convolution_117/convolution/filter", "shape": [3, 3, 1, 1], "dtype": "float32", "quantization": {"dtype": "uint8", "min": -0.5235273031627431, "scale": 0.007587352219749899, "original_dtype": "float32"}}, {"name": "model_52/tf.nn.convolution_118/convolution/filter", "shape": [3, 3, 1, 1], "dtype": "float32", "quantization": {"dtype": "uint8", "min": -0.2989895960863899, "scale": 0.0038331999498255115, "original_dtype": "float32"}}, {"name": "model_52/tf.nn.convolution_119/convolution/filter", "shape": [3, 3, 1, 1], "dtype": "float32", "quantization": {"dtype": "uint8", "min": -2.823645332280327, "scale": 0.016135116184459012, "original_dtype": "float32"}}, {"name": "model_52/tf.nn.convolution_120/convolution/filter", "shape": [3, 3, 1, 1], "dtype": "float32", "quantization": {"dtype": "uint8", "min": -0.8113326156840606, "scale": 0.009658721615286435, "original_dtype": "float32"}}, {"name": "model_52/tf.nn.convolution_121/convolution/filter", "shape": [3, 3, 1, 1], "dtype": "float32", "quantization": {"dtype": "uint8", "min": -0.301811274360208, "scale": 0.0020120751624013865, "original_dtype": "float32"}}, {"name": "model_52/tf.nn.convolution_122/convolution/filter", "shape": [3, 3, 1, 1], "dtype": "float32", "quantization": {"dtype": "uint8", "min": -0.16226593752702076, "scale": 0.0015753974517186482, "original_dtype": "float32"}}, {"name": "model_52/tf.nn.convolution_123/convolution/filter", "shape": [3, 3, 1, 1], "dtype": "float32", "quantization": {"dtype": "uint8", "min": -0.6070237398147583, "scale": 0.005951213135438807, "original_dtype": "float32"}}, {"name": "model_52/tf.nn.convolution_124/convolution/filter", "shape": [3, 3, 1, 1], "dtype": "float32", "quantization": {"dtype": "uint8", "min": -0.20992898537832147, "scale": 0.001488858052328521, "original_dtype": "float32"}}, {"name": "model_52/tf.nn.convolution_125/convolution/filter", "shape": [3, 3, 1, 1], "dtype": "float32", "quantization": {"dtype": "uint8", "min": -0.13831862807273865, "scale": 0.0005414225501190944, "original_dtype": "float32"}}, {"name": "model_52/tf.nn.convolution_126/convolution/filter", "shape": [3, 3, 1, 1], "dtype": "float32", "quantization": {"dtype": "uint8", "min": -0.1155986562371254, "scale": 0.0003476295254978479, "original_dtype": "float32"}}, {"name": "model_52/tf.nn.convolution_127/convolution/filter", "shape": [3, 3, 1, 1], "dtype": "float32", "quantization": {"dtype": "uint8", "min": -0.3863307599927865, "scale": 0.005519010857039807, "original_dtype": "float32"}}, {"name": "model_52/tf.nn.convolution_128/convolution/filter", "shape": [3, 3, 1, 1], "dtype": "float32", "quantization": {"dtype": "uint8", "min": -0.155473530292511, "scale": 0.00046080740935662215, "original_dtype": "float32"}}, {"name": "model_52/tf.nn.convolution_129/convolution/filter", "shape": [3, 3, 1, 1], "dtype": "float32", "quantization": {"dtype": "uint8", "min": -0.20179969668388367, "scale": 0.0009892141994308024, "original_dtype": "float32"}}, {"name": "model_52/tf.nn.convolution_130/convolution/filter", "shape": [3, 3, 1, 1], "dtype": "float32", "quantization": {"dtype": "uint8", "min": -0.9985005070181454, "scale": 0.009160555110258215, "original_dtype": "float32"}}, {"name": "model_52/tf.nn.convolution_131/convolution/filter", "shape": [3, 3, 1, 1], "dtype": "float32", "quantization": {"dtype": "uint8", "min": -1.2419148763020833, "scale": 0.017012532552083334, "original_dtype": "float32"}}, {"name": "model_52/tf.nn.convolution_132/convolution/filter", "shape": [3, 3, 1, 1], "dtype": "float32", "quantization": {"dtype": "uint8", "min": -0.07233424876250473, "scale": 0.0006636169611238966, "original_dtype": "float32"}}, {"name": "model_52/tf.nn.convolution_133/convolution/filter", "shape": [3, 3, 1, 1], "dtype": "float32", "quantization": {"dtype": "uint8", "min": -0.3967869805939057, "scale": 0.0017402937745346742, "original_dtype": "float32"}}, {"name": "model_52/tf.nn.convolution_134/convolution/filter", "shape": [3, 3, 1, 1], "dtype": "float32", "quantization": {"dtype": "uint8", "min": -1.4729027187123018, "scale": 0.009819351458082012, "original_dtype": "float32"}}, {"name": "model_52/tf.nn.convolution_135/convolution/filter", "shape": [3, 3, 1, 1], "dtype": "float32", "quantization": {"dtype": "uint8", "min": -0.7998626517314537, "scale": 0.010808954753127752, "original_dtype": "float32"}}, {"name": "model_52/tf.nn.convolution_136/convolution/filter", "shape": [3, 3, 1, 1], "dtype": "float32", "quantization": {"dtype": "uint8", "min": -0.1737716645002365, "scale": 0.0006198868885928509, "original_dtype": "float32"}}, {"name": "model_52/tf.nn.convolution_137/convolution/filter", "shape": [3, 3, 1, 1], "dtype": "float32", "quantization": {"dtype": "uint8", "min": -0.32156711746664607, "scale": 0.004872229052524941, "original_dtype": "float32"}}, {"name": "model_52/tf.nn.convolution_138/convolution/filter", "shape": [3, 3, 1, 1], "dtype": "float32", "quantization": {"dtype": "uint8", "min": -1.2604511952867694, "scale": 0.012604511952867695, "original_dtype": "float32"}}, {"name": "model_52/tf.nn.convolution_139/convolution/filter", "shape": [3, 3, 1, 1], "dtype": "float32", "quantization": {"dtype": "uint8", "min": -0.14718870497217365, "scale": 0.000651277455629087, "original_dtype": "float32"}}, {"name": "model_52/tf.nn.convolution_140/convolution/filter", "shape": [3, 3, 1, 1], "dtype": "float32", "quantization": {"dtype": "uint8", "min": -0.11644472926855087, "scale": 0.00029981297020818673, "original_dtype": "float32"}}, {"name": "model_52/tf.nn.convolution_141/convolution/filter", "shape": [3, 3, 1, 1], "dtype": "float32", "quantization": {"dtype": "uint8", "min": -0.4916875210462832, "scale": 0.005996189281052234, "original_dtype": "float32"}}, {"name": "model_52/tf.nn.convolution_142/convolution/filter", "shape": [3, 3, 1, 1], "dtype": "float32", "quantization": {"dtype": "uint8", "min": -0.2677876948433764, "scale": 0.001332277088773017, "original_dtype": "float32"}}, {"name": "model_52/tf.nn.convolution_143/convolution/filter", "shape": [3, 3, 1, 1], "dtype": "float32", "quantization": {"dtype": "uint8", "min": -1.002681414052552, "scale": 0.0076540565958210065, "original_dtype": "float32"}}, {"name": "model_52/tf.nn.convolution_144/convolution/filter", "shape": [3, 3, 1, 1], "dtype": "float32", "quantization": {"dtype": "uint8", "min": -0.32216979848111377, "scale": 0.0014318657710271723, "original_dtype": "float32"}}, {"name": "model_52/tf.nn.convolution_145/convolution/filter", "shape": [3, 3, 1, 1], "dtype": "float32", "quantization": {"dtype": "uint8", "min": -2.4466336764541325, "scale": 0.03445962924583285, "original_dtype": "float32"}}, {"name": "model_52/tf.nn.convolution_146/convolution/filter", "shape": [3, 3, 1, 1], "dtype": "float32", "quantization": {"dtype": "uint8", "min": -0.20445935597606735, "scale": 0.00287970923909954, "original_dtype": "float32"}}, {"name": "model_52/tf.nn.convolution_147/convolution/filter", "shape": [3, 3, 1, 1], "dtype": "float32", "quantization": {"dtype": "uint8", "min": -0.2053683657418279, "scale": 0.0008890405443369174, "original_dtype": "float32"}}, {"name": "model_52/tf.nn.convolution_148/convolution/filter", "shape": [3, 3, 1, 1], "dtype": "float32", "quantization": {"dtype": "uint8", "min": -0.12809196172976026, "scale": 0.0008005747608110016, "original_dtype": "float32"}}, {"name": "model_52/tf.nn.convolution_149/convolution/filter", "shape": [3, 3, 1, 1], "dtype": "float32", "quantization": {"dtype": "uint8", "min": -0.7393157131531659, "scale": 0.009478406578886742, "original_dtype": "float32"}}, {"name": "model_52/tf.nn.convolution_150/convolution/filter", "shape": [3, 3, 1, 1], "dtype": "float32", "quantization": {"dtype": "uint8", "min": -0.5653891446543675, "scale": 0.008076987780776678, "original_dtype": "float32"}}, {"name": "model_52/tf.nn.convolution_151/convolution/filter", "shape": [3, 3, 1, 1], "dtype": "float32", "quantization": {"dtype": "uint8", "min": -0.22541773319244385, "scale": 0.0008091869088364583, "original_dtype": "float32"}}, {"name": "model_52/tf.nn.convolution_152/convolution/filter", "shape": [3, 3, 1, 1], "dtype": "float32", "quantization": {"dtype": "uint8", "min": -0.13652227818965912, "scale": 0.0005080522622401808, "original_dtype": "float32"}}, {"name": "model_52/tf.nn.convolution_153/convolution/filter", "shape": [3, 3, 1, 1], "dtype": "float32", "quantization": {"dtype": "uint8", "min": -0.6411709533018224, "scale": 0.006476474275775984, "original_dtype": "float32"}}, {"name": "model_52/tf.nn.convolution_154/convolution/filter", "shape": [3, 3, 1, 1], "dtype": "float32", "quantization": {"dtype": "uint8", "min": -0.11311449110507965, "scale": 0.0003066798343377955, "original_dtype": "float32"}}, {"name": "model_52/tf.nn.convolution_155/convolution/filter", "shape": [3, 3, 1, 1], "dtype": "float32", "quantization": {"dtype": "uint8", "min": -0.7842876167858348, "scale": 0.007614442881415872, "original_dtype": "float32"}}, {"name": "model_52/tf.nn.convolution_156/convolution/filter", "shape": [3, 3, 1, 1], "dtype": "float32", "quantization": {"dtype": "uint8", "min": -0.12312453240156174, "scale": 0.0004572530167506022, "original_dtype": "float32"}}, {"name": "model_52/tf.nn.convolution_157/convolution/filter", "shape": [3, 3, 1, 1], "dtype": "float32", "quantization": {"dtype": "uint8", "min": -0.35548997977200675, "scale": 0.005642698091619155, "original_dtype": "float32"}}, {"name": "model_52/tf.nn.convolution_158/convolution/filter", "shape": [3, 3, 1, 1], "dtype": "float32", "quantization": {"dtype": "uint8", "min": -0.1236443743109703, "scale": 0.000292336502495934, "original_dtype": "float32"}}, {"name": "model_52/tf.nn.convolution_159/convolution/filter", "shape": [3, 3, 1, 1], "dtype": "float32", "quantization": {"dtype": "uint8", "min": -0.5808429470249251, "scale": 0.007352442367404115, "original_dtype": "float32"}}, {"name": "model_52/tf.split/split/split_dim", "shape": [], "dtype": "int32"}, {"name": "model_52/tf.strided_slice_6/ones_like/tensor", "shape": [4], "dtype": "int32"}, {"name": "model_52/tf.strided_slice_6/StridedSlice/end", "shape": [4], "dtype": "int32"}, {"name": "model_52/tf.strided_slice_6/ones_like", "shape": [4], "dtype": "int32"}, {"name": "model_52/tf.nn.convolution_23/convolution/filter", "shape": [1, 1, 128, 64], "dtype": "float32", "quantization": {"dtype": "uint8", "min": -0.5098629815905702, "scale": 0.004078903852724561, "original_dtype": "float32"}}, {"name": "model_52/tf.math.add_31/Add/y", "shape": [64], "dtype": "float32", "quantization": {"dtype": "uint8", "min": -1.3407242120481004, "scale": 0.010474407906625785, "original_dtype": "float32"}}, {"name": "model_52/tf.nn.convolution_25/convolution/filter", "shape": [3, 3, 64, 64], "dtype": "float32", "quantization": {"dtype": "uint8", "min": -0.5050087711390326, "scale": 0.004391380618600284, "original_dtype": "float32"}}, {"name": "model_52/tf.math.add_33/Add/y", "shape": [64], "dtype": "float32", "quantization": {"dtype": "uint8", "min": -3.1497339921839096, "scale": 0.03749683324028464, "original_dtype": "float32"}}, {"name": "model_52/tf.nn.convolution_26/convolution/filter", "shape": [3, 3, 64, 64], "dtype": "float32", "quantization": {"dtype": "uint8", "min": -0.40989738761209976, "scale": 0.003279179100896798, "original_dtype": "float32"}}, {"name": "model_52/tf.math.add_34/Add/y", "shape": [64], "dtype": "float32", "quantization": {"dtype": "uint8", "min": -2.0644312241498164, "scale": 0.015639630485983456, "original_dtype": "float32"}}, {"name": "model_52/tf.nn.convolution_27/convolution/filter", "shape": [3, 3, 64, 64], "dtype": "float32", "quantization": {"dtype": "uint8", "min": -0.4615066778426077, "scale": 0.003782841621660719, "original_dtype": "float32"}}, {"name": "model_52/tf.math.add_37/Add/y", "shape": [64], "dtype": "float32", "quantization": {"dtype": "uint8", "min": -1.5866470720253738, "scale": 0.01844938455843458, "original_dtype": "float32"}}, {"name": "model_52/tf.nn.convolution_28/convolution/filter", "shape": [3, 3, 64, 64], "dtype": "float32", "quantization": {"dtype": "uint8", "min": -0.5270119068669338, "scale": 0.00431976972841749, "original_dtype": "float32"}}, {"name": "model_52/tf.math.add_38/Add/y", "shape": [64], "dtype": "float32", "quantization": {"dtype": "uint8", "min": -2.1869802998561485, "scale": 0.026670491461660346, "original_dtype": "float32"}}, {"name": "model_52/tf.strided_slice_4/ones_like/tensor", "shape": [4], "dtype": "int32"}, {"name": "model_52/tf.strided_slice_4/StridedSlice/end", "shape": [4], "dtype": "int32"}, {"name": "model_52/tf.strided_slice_4/ones_like", "shape": [4], "dtype": "int32"}, {"name": "model_52/tf.nn.convolution_13/convolution/filter", "shape": [1, 1, 64, 32], "dtype": "float32", "quantization": {"dtype": "uint8", "min": -0.6437895774841309, "scale": 0.0047337468932656685, "original_dtype": "float32"}}, {"name": "model_52/tf.math.add_17/Add/y", "shape": [32], "dtype": "float32", "quantization": {"dtype": "uint8", "min": -0.8538743804482853, "scale": 0.012937490612852808, "original_dtype": "float32"}}, {"name": "model_52/tf.nn.convolution_15/convolution/filter", "shape": [3, 3, 32, 32], "dtype": "float32", "quantization": {"dtype": "uint8", "min": -0.5110662733807284, "scale": 0.004223688209758086, "original_dtype": "float32"}}, {"name": "model_52/tf.math.add_19/Add/y", "shape": [32], "dtype": "float32", "quantization": {"dtype": "uint8", "min": -2.5968792242162366, "scale": 0.02792343251845416, "original_dtype": "float32"}}, {"name": "model_52/tf.nn.convolution_16/convolution/filter", "shape": [3, 3, 32, 32], "dtype": "float32", "quantization": {"dtype": "uint8", "min": -0.7352593407911412, "scale": 0.00623101136263679, "original_dtype": "float32"}}, {"name": "model_52/tf.math.add_20/Add/y", "shape": [32], "dtype": "float32", "quantization": {"dtype": "uint8", "min": -1.5921603469287648, "scale": 0.012944393064461502, "original_dtype": "float32"}}, {"name": "model_52/tf.nn.convolution_17/convolution/filter", "shape": [3, 3, 32, 32], "dtype": "float32", "quantization": {"dtype": "uint8", "min": -0.20521847570643706, "scale": 0.001800162067600325, "original_dtype": "float32"}}, {"name": "model_52/tf.math.add_23/Add/y", "shape": [32], "dtype": "float32", "quantization": {"dtype": "uint8", "min": -1.7436709403991697, "scale": 0.01709481314116833, "original_dtype": "float32"}}, {"name": "model_52/tf.nn.convolution_18/convolution/filter", "shape": [3, 3, 32, 32], "dtype": "float32", "quantization": {"dtype": "uint8", "min": -0.7425149506213619, "scale": 0.00640099095363243, "original_dtype": "float32"}}, {"name": "model_52/tf.math.add_24/Add/y", "shape": [32], "dtype": "float32", "quantization": {"dtype": "uint8", "min": -2.212153341255936, "scale": 0.042541410408768, "original_dtype": "float32"}}, {"name": "model_52/tf.strided_slice_2/ones_like/tensor", "shape": [4], "dtype": "int32"}, {"name": "model_52/tf.strided_slice_2/StridedSlice/end", "shape": [4], "dtype": "int32"}, {"name": "model_52/tf.strided_slice_2/ones_like", "shape": [4], "dtype": "int32"}, {"name": "model_52/tf.strided_slice/ones_like/tensor", "shape": [4], "dtype": "int32"}, {"name": "model_52/tf.strided_slice/StridedSlice/end", "shape": [4], "dtype": "int32"}, {"name": "model_52/tf.strided_slice/ones_like", "shape": [4], "dtype": "int32"}, {"name": "model_52/tf.compat.v1.pad/Pad/paddings", "shape": [4, 2], "dtype": "int32"}, {"name": "model_52/tf.nn.convolution/convolution/filter", "shape": [3, 3, 3, 16], "dtype": "float32", "quantization": {"dtype": "uint8", "min": -13.54827807931339, "scale": 0.11579724854114008, "original_dtype": "float32"}}, {"name": "model_52/tf.math.add/Add/y", "shape": [16], "dtype": "float32", "quantization": {"dtype": "uint8", "min": -27.992512725381292, "scale": 0.13266593708711513, "original_dtype": "float32"}}, {"name": "model_52/tf.compat.v1.pad_1/Pad/paddings", "shape": [4, 2], "dtype": "int32"}, {"name": "model_52/tf.nn.convolution_1/convolution/filter", "shape": [3, 3, 16, 32], "dtype": "float32", "quantization": {"dtype": "uint8", "min": -3.4487220820258644, "scale": 0.022991480546839096, "original_dtype": "float32"}}, {"name": "model_52/tf.math.add_1/Add/y", "shape": [32], "dtype": "float32", "quantization": {"dtype": "uint8", "min": -17.501827965530694, "scale": 0.15488343332328047, "original_dtype": "float32"}}, {"name": "model_52/tf.nn.convolution_2/convolution/filter", "shape": [1, 1, 32, 32], "dtype": "float32", "quantization": {"dtype": "uint8", "min": -2.3473132470074822, "scale": 0.020590467079013002, "original_dtype": "float32"}}, {"name": "model_52/tf.math.add_2/Add/y", "shape": [32], "dtype": "float32", "quantization": {"dtype": "uint8", "min": -24.13634236653646, "scale": 0.21550305684407553, "original_dtype": "float32"}}, {"name": "model_52/tf.strided_slice_1/ones_like/tensor", "shape": [4], "dtype": "int32"}, {"name": "model_52/tf.strided_slice_1/StridedSlice/end", "shape": [4], "dtype": "int32"}, {"name": "model_52/tf.strided_slice_1/ones_like", "shape": [4], "dtype": "int32"}, {"name": "model_52/tf.nn.convolution_3/convolution/filter", "shape": [3, 3, 16, 8], "dtype": "float32", "quantization": {"dtype": "uint8", "min": -0.32040130951825313, "scale": 0.0028607259778415457, "original_dtype": "float32"}}, {"name": "model_52/tf.math.add_3/Add/y", "shape": [8], "dtype": "float32", "quantization": {"dtype": "uint8", "min": 0.8605551719665527, "scale": 0.06348420124427945, "original_dtype": "float32"}}, {"name": "model_52/tf.nn.convolution_4/convolution/filter", "shape": [3, 3, 8, 16], "dtype": "float32", "quantization": {"dtype": "uint8", "min": -2.0228025604696835, "scale": 0.01658034885630888, "original_dtype": "float32"}}, {"name": "model_52/tf.math.add_4/Add/y", "shape": [16], "dtype": "float32", "quantization": {"dtype": "uint8", "min": 3.465686082839966, "scale": 0.09555990462209664, "original_dtype": "float32"}}, {"name": "model_52/tf.concat/concat/axis", "shape": [], "dtype": "int32"}, {"name": "model_52/tf.nn.convolution_5/convolution/filter", "shape": [1, 1, 48, 64], "dtype": "float32", "quantization": {"dtype": "uint8", "min": -0.6570101548643673, "scale": 0.005341545974507051, "original_dtype": "float32"}}, {"name": "model_52/tf.math.add_7/Add/y", "shape": [64], "dtype": "float32", "quantization": {"dtype": "uint8", "min": -11.73018475700827, "scale": 0.10473379247328814, "original_dtype": "float32"}}, {"name": "model_52/tf.compat.v1.pad_2/Pad/paddings", "shape": [4, 2], "dtype": "int32"}, {"name": "model_52/tf.nn.convolution_6/convolution/filter", "shape": [3, 3, 64, 64], "dtype": "float32", "quantization": {"dtype": "uint8", "min": -0.20211002113772372, "scale": 0.0016566395175223257, "original_dtype": "float32"}}, {"name": "model_52/tf.math.add_8/Add/y", "shape": [64], "dtype": "float32", "quantization": {"dtype": "uint8", "min": -1.361498170740464, "scale": 0.02836454522375967, "original_dtype": "float32"}}, {"name": "model_52/tf.nn.convolution_7/convolution/filter", "shape": [1, 1, 64, 64], "dtype": "float32", "quantization": {"dtype": "uint8", "min": -1.188772329162149, "scale": 0.008086886592939789, "original_dtype": "float32"}}, {"name": "model_52/tf.math.add_9/Add/y", "shape": [64], "dtype": "float32", "quantization": {"dtype": "uint8", "min": -3.1238159675224155, "scale": 0.04279199955510158, "original_dtype": "float32"}}, {"name": "model_52/tf.strided_slice_3/ones_like/tensor", "shape": [4], "dtype": "int32"}, {"name": "model_52/tf.strided_slice_3/StridedSlice/end", "shape": [4], "dtype": "int32"}, {"name": "model_52/tf.strided_slice_3/ones_like", "shape": [4], "dtype": "int32"}, {"name": "model_52/tf.nn.convolution_8/convolution/filter", "shape": [3, 3, 32, 16], "dtype": "float32", "quantization": {"dtype": "uint8", "min": -0.7158061373467539, "scale": 0.005772630139893177, "original_dtype": "float32"}}, {"name": "model_52/tf.math.add_10/Add/y", "shape": [16], "dtype": "float32", "quantization": {"dtype": "uint8", "min": -0.30336593880372886, "scale": 0.016853663266873826, "original_dtype": "float32"}}, {"name": "model_52/tf.nn.convolution_9/convolution/filter", "shape": [3, 3, 16, 32], "dtype": "float32", "quantization": {"dtype": "uint8", "min": -0.7024493348364736, "scale": 0.00548788542840995, "original_dtype": "float32"}}, {"name": "model_52/tf.math.add_11/Add/y", "shape": [32], "dtype": "float32", "quantization": {"dtype": "uint8", "min": -0.2242849913297915, "scale": 0.0448569982659583, "original_dtype": "float32"}}, {"name": "model_52/tf.concat_1/concat/axis", "shape": [], "dtype": "int32"}, {"name": "model_52/tf.nn.convolution_10/convolution/filter", "shape": [1, 1, 96, 128], "dtype": "float32", "quantization": {"dtype": "uint8", "min": -0.6722422431497013, "scale": 0.005092744266285616, "original_dtype": "float32"}}, {"name": "model_52/tf.math.add_14/Add/y", "shape": [128], "dtype": "float32", "quantization": {"dtype": "uint8", "min": -10.65202320323271, "scale": 0.0710134880215514, "original_dtype": "float32"}}, {"name": "model_52/tf.compat.v1.pad_3/Pad/paddings", "shape": [4, 2], "dtype": "int32"}, {"name": "model_52/tf.nn.convolution_11/convolution/filter", "shape": [3, 3, 128, 128], "dtype": "float32", "quantization": {"dtype": "uint8", "min": -0.6001041473126879, "scale": 0.004725229506399117, "original_dtype": "float32"}}, {"name": "model_52/tf.math.add_15/Add/y", "shape": [128], "dtype": "float32", "quantization": {"dtype": "uint8", "min": -2.655889518588197, "scale": 0.03018056271122951, "original_dtype": "float32"}}, {"name": "model_52/tf.nn.convolution_12/convolution/filter", "shape": [1, 1, 128, 128], "dtype": "float32", "quantization": {"dtype": "uint8", "min": -1.188170312432682, "scale": 0.00886694263009464, "original_dtype": "float32"}}, {"name": "model_52/tf.math.add_16/Add/y", "shape": [128], "dtype": "float32", "quantization": {"dtype": "uint8", "min": -5.470385355107925, "scale": 0.04052137300079944, "original_dtype": "float32"}}, {"name": "model_52/tf.strided_slice_5/ones_like/tensor", "shape": [4], "dtype": "int32"}, {"name": "model_52/tf.strided_slice_5/StridedSlice/end", "shape": [4], "dtype": "int32"}, {"name": "model_52/tf.strided_slice_5/ones_like", "shape": [4], "dtype": "int32"}, {"name": "model_52/tf.nn.convolution_14/convolution/filter", "shape": [1, 1, 64, 32], "dtype": "float32", "quantization": {"dtype": "uint8", "min": -1.4713821177389106, "scale": 0.015488232818304323, "original_dtype": "float32"}}, {"name": "model_52/tf.math.add_18/Add/y", "shape": [32], "dtype": "float32", "quantization": {"dtype": "uint8", "min": -4.379912486730837, "scale": 0.029395385816985486, "original_dtype": "float32"}}, {"name": "model_52/tf.concat_2/concat/axis", "shape": [], "dtype": "int32"}, {"name": "model_52/tf.nn.convolution_19/convolution/filter", "shape": [1, 1, 64, 64], "dtype": "float32", "quantization": {"dtype": "uint8", "min": -0.7844748403511795, "scale": 0.006176967246859681, "original_dtype": "float32"}}, {"name": "model_52/tf.math.add_27/Add/y", "shape": [64], "dtype": "float32", "quantization": {"dtype": "uint8", "min": -11.166962803111357, "scale": 0.08396212633918314, "original_dtype": "float32"}}, {"name": "model_52/tf.concat_3/concat/axis", "shape": [], "dtype": "int32"}, {"name": "model_52/tf.nn.convolution_20/convolution/filter", "shape": [1, 1, 192, 128], "dtype": "float32", "quantization": {"dtype": "uint8", "min": -0.5662768083460191, "scale": 0.004289975820803175, "original_dtype": "float32"}}, {"name": "model_52/tf.math.add_28/Add/y", "shape": [128], "dtype": "float32", "quantization": {"dtype": "uint8", "min": -4.944936204424091, "scale": 0.027320089527204924, "original_dtype": "float32"}}, {"name": "model_52/tf.compat.v1.pad_4/Pad/paddings", "shape": [4, 2], "dtype": "int32"}, {"name": "model_52/tf.nn.convolution_21/convolution/filter", "shape": [3, 3, 128, 256], "dtype": "float32", "quantization": {"dtype": "uint8", "min": -0.5103427466224222, "scale": 0.004476690759845809, "original_dtype": "float32"}}, {"name": "model_52/tf.math.add_29/Add/y", "shape": [256], "dtype": "float32", "quantization": {"dtype": "uint8", "min": -5.4210561808417825, "scale": 0.03687793320300532, "original_dtype": "float32"}}, {"name": "model_52/tf.nn.convolution_22/convolution/filter", "shape": [1, 1, 256, 256], "dtype": "float32", "quantization": {"dtype": "uint8", "min": -0.697440016970915, "scale": 0.00571672145058127, "original_dtype": "float32"}}, {"name": "model_52/tf.math.add_30/Add/y", "shape": [256], "dtype": "float32", "quantization": {"dtype": "uint8", "min": -4.383198513704188, "scale": 0.03153380225686466, "original_dtype": "float32"}}, {"name": "model_52/tf.strided_slice_7/ones_like/tensor", "shape": [4], "dtype": "int32"}, {"name": "model_52/tf.strided_slice_7/StridedSlice/end", "shape": [4], "dtype": "int32"}, {"name": "model_52/tf.strided_slice_7/ones_like", "shape": [4], "dtype": "int32"}, {"name": "model_52/tf.nn.convolution_24/convolution/filter", "shape": [1, 1, 128, 64], "dtype": "float32", "quantization": {"dtype": "uint8", "min": -0.9307353531613068, "scale": 0.007955003018472708, "original_dtype": "float32"}}, {"name": "model_52/tf.math.add_32/Add/y", "shape": [64], "dtype": "float32", "quantization": {"dtype": "uint8", "min": -3.2047940534703874, "scale": 0.0239163735333611, "original_dtype": "float32"}}, {"name": "model_52/tf.concat_4/concat/axis", "shape": [], "dtype": "int32"}, {"name": "model_52/tf.nn.convolution_29/convolution/filter", "shape": [1, 1, 128, 128], "dtype": "float32", "quantization": {"dtype": "uint8", "min": -0.42609165229049384, "scale": 0.003804389752593695, "original_dtype": "float32"}}, {"name": "model_52/tf.math.add_41/Add/y", "shape": [128], "dtype": "float32", "quantization": {"dtype": "uint8", "min": -5.065235811121323, "scale": 0.03957215477438534, "original_dtype": "float32"}}, {"name": "model_52/tf.concat_5/concat/axis", "shape": [], "dtype": "int32"}, {"name": "model_52/tf.nn.convolution_30/convolution/filter", "shape": [1, 1, 384, 256], "dtype": "float32", "quantization": {"dtype": "uint8", "min": -0.5148452123006185, "scale": 0.004438320795694987, "original_dtype": "float32"}}, {"name": "model_52/tf.math.add_42/Add/y", "shape": [256], "dtype": "float32", "quantization": {"dtype": "uint8", "min": -4.322255811504289, "scale": 0.03376762352737726, "original_dtype": "float32"}}, {"name": "model_52/tf.nn.convolution_31/convolution/filter", "shape": [1, 1, 256, 256], "dtype": "float32", "quantization": {"dtype": "uint8", "min": -0.8018120197688832, "scale": 0.007356073575861314, "original_dtype": "float32"}}, {"name": "model_52/tf.math.add_43/Add/y", "shape": [256], "dtype": "float32", "quantization": {"dtype": "uint8", "min": -3.9745797531277525, "scale": 0.03517327215157303, "original_dtype": "float32"}}, {"name": "model_52/tf.strided_slice_9/StridedSlice/begin", "shape": [4], "dtype": "int32"}, {"name": "model_52/tf.strided_slice_9/StridedSlice/end", "shape": [4], "dtype": "int32"}, {"name": "model_52/tf.strided_slice_9/ones_like", "shape": [4], "dtype": "int32"}, {"name": "model_52/tf.nn.convolution_32/convolution/filter", "shape": [1, 1, 128, 256], "dtype": "float32", "quantization": {"dtype": "uint8", "min": -1.6214285023072188, "scale": 0.010882070485283347, "original_dtype": "float32"}}, {"name": "model_52/tf.math.add_44/Add/y", "shape": [256], "dtype": "float32", "quantization": {"dtype": "uint8", "min": -7.525139064414828, "scale": 0.06718874164656097, "original_dtype": "float32"}}, {"name": "model_52/tf.compat.v1.transpose_40/transpose/perm", "shape": [4], "dtype": "int32"}, {"name": "model_52/tf.reshape_2/Reshape/shape", "shape": [4], "dtype": "int32"}, {"name": "model_52/tf.strided_slice_12/StridedSlice/begin", "shape": [4], "dtype": "int32"}, {"name": "model_52/tf.strided_slice_12/StridedSlice/end", "shape": [4], "dtype": "int32"}, {"name": "model_52/tf.strided_slice_12/ones_like", "shape": [4], "dtype": "int32"}, {"name": "model_52/tf.reshape_5/Reshape/shape", "shape": [4], "dtype": "int32"}, {"name": "model_52/tf.compat.v1.transpose_56/transpose/perm", "shape": [4], "dtype": "int32"}, {"name": "model_52/tf.nn.convolution_160/convolution/filter", "shape": [3, 3, 1, 1], "dtype": "float32", "quantization": {"dtype": "uint8", "min": -0.17721381783485413, "scale": 0.0006949117055424437, "original_dtype": "float32"}}, {"name": "model_52/tf.concat_6/concat/axis", "shape": [], "dtype": "int32"}, {"name": "model_52/tf.nn.convolution_161/convolution/filter", "shape": [1, 1, 128, 128], "dtype": "float32", "quantization": {"dtype": "uint8", "min": -0.3101691224995781, "scale": 0.002542369856553919, "original_dtype": "float32"}}, {"name": "model_52/tf.math.add_48/Add/y", "shape": [128], "dtype": "float32", "quantization": {"dtype": "uint8", "min": -1.2877196218453202, "scale": 0.01149749662361893, "original_dtype": "float32"}}, {"name": "model_52/tf.nn.convolution_162/convolution/filter", "shape": [1, 1, 128, 256], "dtype": "float32", "quantization": {"dtype": "uint8", "min": -0.32933757211647785, "scale": 0.002593209229263605, "original_dtype": "float32"}}, {"name": "model_52/tf.math.add_51/Add/y", "shape": [256], "dtype": "float32", "quantization": {"dtype": "uint8", "min": -6.155144691467285, "scale": 0.023120177259632186, "original_dtype": "float32"}}, {"name": "model_52/tf.nn.convolution_163/convolution/filter", "shape": [1, 1, 256, 128], "dtype": "float32", "quantization": {"dtype": "uint8", "min": -1.7686875090879552, "scale": 0.0144974385990816, "original_dtype": "float32"}}, {"name": "model_52/tf.concat_7/concat/axis", "shape": [], "dtype": "int32"}, {"name": "model_52/tf.nn.convolution_164/convolution/filter", "shape": [1, 1, 256, 256], "dtype": "float32", "quantization": {"dtype": "uint8", "min": -0.21627197633771336, "scale": 0.0020597331079782225, "original_dtype": "float32"}}, {"name": "model_52/tf.math.add_55/Add/y", "shape": [256], "dtype": "float32", "quantization": {"dtype": "uint8", "min": -3.375576445635627, "scale": 0.01974021313237209, "original_dtype": "float32"}}, {"name": "model_52/tf.nn.convolution_165/convolution/filter", "shape": [1, 1, 256, 1280], "dtype": "float32", "quantization": {"dtype": "uint8", "min": -8.761518141802618, "scale": 0.11682024189070159, "original_dtype": "float32"}}, {"name": "model_52/tf.math.add_56/Add/y", "shape": [1280], "dtype": "float32", "quantization": {"dtype": "uint8", "min": -22.69363377888997, "scale": 0.120710817972819, "original_dtype": "float32"}}, {"name": "model_52/tf.math.reduce_mean/Mean/reduction_indices", "shape": [2], "dtype": "int32"}, {"name": "model_52/tf.compat.v1.transpose_111/transpose/perm", "shape": [4], "dtype": "int32"}, {"name": "model_52/tf.reshape_32/Reshape/shape", "shape": [2], "dtype": "int32"}, {"name": "model_52/tf.linalg.matmul_20/MatMul/b", "shape": [1280, 143], "dtype": "float32", "quantization": {"dtype": "uint8", "min": -0.2803213082107843, "scale": 0.002950750612745098, "original_dtype": "float32"}}, {"name": "model_52/tf.__operators__.add/AddV2/y", "shape": [143], "dtype": "float32", "quantization": {"dtype": "uint8", "min": -0.12620873544730393, "scale": 0.0009418562346813726, "original_dtype": "float32"}}]}]}